checkpoint_actor1.pth (torch_old, 160208 bytes, 10 tensors)

bn.weight f4 [24]
0	0x3e4d789c	0.2006554
1	0x3f433f6d	0.76268655
2	0x3e6bc3ed	0.23023959
3	0x3ecf378b	0.40472063
4	0x3f71ff41	0.9453011
5	0x3e56bea6	0.20971164
6	0x3f3adde3	0.7299482
7	0x3f6ca90e	0.92445457
8	0x3eb68827	0.3565075
9	0x3f7b56c3	0.9817926
10	0x3f558424	0.83404756
11	0x3f8ecaa6	1.1155593
12	0x3e95aebf	0.29234883
13	0x3f8346e0	1.0256004
14	0x3d489cac	0.04897754
15	0x3f84d29f	1.0376776
16	0x3ef58862	0.47955614
17	0x3f0184fd	0.5059355
18	0x3f14cb31	0.58122545
19	0x3f20b6b5	0.6277879
20	0x3f4c7988	0.7987294
21	0x3f7ab71c	0.9793565
22	0x3e33dd42	0.17564872
23	0x3f3ca748	0.7369275

bn.bias f4 [24]
0	0xbd27e923	-0.04099382
1	0x3d51760f	0.05113798
2	0x3c8eb025	0.017417977
3	0xbd7dd42d	-0.061969925
4	0xbc507da6	-0.012725269
5	0xbc2e107f	-0.01062405
6	0x3c1d65b0	0.009606764
7	0xbd6fb9a1	-0.05852664
8	0xbd1dc6ae	-0.038519554
9	0x3d15cbda	0.03657136
10	0x3cde4c6a	0.027136046
11	0xbd9a00fc	-0.07519719
12	0x3ca11d28	0.019667223
13	0xbd837d52	-0.06420387
14	0x3c077f9e	0.008270172
15	0xbda8b218	-0.08237094
16	0xbd2a314f	-0.04155093
17	0x3cb2e702	0.021838669
18	0x3ce94717	0.028476281
19	0xbd9f9bc5	-0.077933826
20	0xbc2b4f46	-0.010455912
21	0xbd3535fc	-0.044240937
22	0x3da015ff	0.078166954
23	0xbdb2a82c	-0.087234825

bn.running_mean f4 [24]
0	0x00000000	0.0
1	0x00000000	0.0
2	0x00000000	0.0
3	0x00000000	0.0
4	0x00000000	0.0
5	0x00000000	0.0
6	0x00000000	0.0
7	0x00000000	0.0
8	0x00000000	0.0
9	0x00000000	0.0
10	0x00000000	0.0
11	0x00000000	0.0
12	0x00000000	0.0
13	0x00000000	0.0
14	0x00000000	0.0
15	0x00000000	0.0
16	0x00000000	0.0
17	0x00000000	0.0
18	0x00000000	0.0
19	0x00000000	0.0
20	0x00000000	0.0
21	0x00000000	0.0
22	0x00000000	0.0
23	0x00000000	0.0

bn.running_var f4 [24]
0	0x3f800000	1.0
1	0x3f800000	1.0
2	0x3f800000	1.0
3	0x3f800000	1.0
4	0x3f800000	1.0
5	0x3f800000	1.0
6	0x3f800000	1.0
7	0x3f800000	1.0
8	0x3f800000	1.0
9	0x3f800000	1.0
10	0x3f800000	1.0
11	0x3f800000	1.0
12	0x3f800000	1.0
13	0x3f800000	1.0
14	0x3f800000	1.0
15	0x3f800000	1.0
16	0x3f800000	1.0
17	0x3f800000	1.0
18	0x3f800000	1.0
19	0x3f800000	1.0
20	0x3f800000	1.0
21	0x3f800000	1.0
22	0x3f800000	1.0
23	0x3f800000	1.0

fc1.weight f4 [256, 24]
0	0xbc9ccc0f	-0.019140271
1	0x3dfbb9fb	0.12291332
2	0x3bd2b95f	0.0064307894
3	0x3d7d82d8	0.06189236
4	0xbd40effc	-0.047103867
5	0x3da6c11b	0.08142301
6	0xbcd7e011	-0.02635196
7	0xbd2d285f	-0.04227483
8	0xbde48305	-0.111578025
9	0x3dca5566	0.0987957
10	0xbd04859e	-0.03235399
11	0x3cd1f27a	0.025628317
12	0xbd20dda5	-0.039273877
13	0x3d0892d5	0.033343155
14	0x3cfe673f	0.031055091
15	0xbc54b5fc	-0.012982842
16	0xbcb921fc	-0.022599213
17	0x3e307e22	0.17235616
18	0xbbb8e729	-0.005642791
19	0xbd797a25	-0.0609075
20	0x3e1a5a99	0.15073623
21	0xbd8d00f7	-0.0688495
22	0xbd2bdfeb	-0.04196159
23	0xbd665956	-0.05623754
24	0xbd286093	-0.041107725
25	0xbe00ea2f	-0.12589334
26	0x3ce000f1	0.027344199
27	0x3dafd00e	0.08584605
28	0x3e323ca2	0.17405942
29	0xbc20634f	-0.009789302
30	0x3d088397	0.03332862
31	0x3d84e4dc	0.06488964
32	0xbe00a0a4	-0.1256128
33	0xbd5d831a	-0.054080106
34	0x3c33754a	0.010953257
35	0x3d989e76	0.07452099
36	0xbb54bd4c	-0.0032461463
37	0xbd047b68	-0.032344252
38	0xbab11d62	-0.0013512785
39	0x3c3ff21a	0.011715436
40	0xbdc51f29	-0.09625084
41	0xbdf9e1e6	-0.1220129
42	0xbbb04eeb	-0.0053805015
43	0xbb886643	-0.004162581
44	0xbe021d92	-0.12706593
45	0x3ba87c7e	0.0051417938
46	0x3c7ed912	0.015554683
47	0xbd794277	-0.0608544
48	0x3e3cae25	0.18425806
49	0xbeb98983	-0.36237726
50	0x3c70c2ed	0.014694911
51	0xba55db68	-0.0008157999
52	0x3dc2deae	0.09515129
53	0xbbde1366	-0.006777215
54	0xbcf1a14f	-0.029495863
55	0x3d213fef	0.039367612
56	0x3e43ab37	0.19108282
57	0xbe7bca98	-0.24589002
58	0x3d5e9356	0.05433973
59	0xbc9a5d90	-0.018843442
60	0x3db8c724	0.09022358
61	0xbd4e3ff5	-0.050353963
62	0xbd812bc2	-0.06307174
63	0xbcc90267	-0.024537278
64	0x3e6bb435	0.23017962
65	0xbe46616f	-0.19373105
66	0x3d9384ae	0.07203041
67	0x3d7d893c	0.061898455
68	0xbce4c189	-0.027924316
69	0xbc9b1b68	-0.018933967
70	0xbd02ffc4	-0.0319822
71	0x3dc20562	0.09473683
72	0xbd932ccb	-0.07186278
73	0x3dc7d3ca	0.097571924
74	0xbd048692	-0.0323549
75	0xbd7fb4bc	-0.06242822
76	0xbd397fd6	-0.04528793
77	0xbd163fd4	-0.036681965
78	0x3d03de0a	0.032194175
79	0x3b8086da	0.0039223256
80	0xbca0e579	-0.019640671
81	0xbb9e5839	-0.0048322943
82	0x3cf7b959	0.030239748
83	0x3d27295a	0.04081092
84	0xbc833cf1	-0.01602027
85	0xbd95dcb3	-0.07317486
86	0xbd1ec5a1	-0.038762692
87	0xbd0bd019	-0.034134004
88	0xbd243dce	-0.040098004
89	0xbd85a036	-0.065246984
90	0x3d630864	0.055427924
91	0x3b58a5f4	0.00330579
92	0xbd83bdb5	-0.06432668
93	0x3d43f433	0.04784031
94	0x3c7e2cdf	0.015513628
95	0x3cc796de	0.024363931
96	0xbdc75918	-0.0973379
97	0x3e164d17	0.14677845
98	0x3b637485	0.0034706902
99	0xbd102470	-0.035191
100	0xbbd380f4	-0.0064545814
101	0xbd0a4dc2	-0.033765562
102	0x3d0b1bfa	0.033962227
103	0x3c2a068c	0.010377537
104	0xbdfbea3f	-0.12300538
105	0x3db9bebe	0.09069584
106	0xbcb2e84d	-0.021839285
107	0xbda62455	-0.081123985
108	0xbd433820	-0.047660947
109	0xbb555fc8	-0.003255831
110	0x3d49642d	0.0491678
111	0xbdbbfe3f	-0.09179353
112	0xbd96c295	-0.07361332
113	0x3cb86719	0.022510098
114	0x3c821278	0.015877947
115	0xbdca90a6	-0.09890871
116	0x3cba6f45	0.022758136
117	0xbd86c9d7	-0.06581467
118	0x3d7f0cb1	0.062267963
119	0xbdaa552a	-0.08317025
120	0xbd260fce	-0.040542416
121	0x3e348003	0.17626958
122	0xbc427209	-0.011868008
123	0xbc8f8fb4	-0.017524578
124	0x3e259cd1	0.16173102
125	0x3d1464b6	0.036228858
126	0xbd65a80c	-0.056068465
127	0xbdb02f9e	-0.08602832
128	0x3d62b960	0.05535257
129	0x3db16124	0.08661106
130	0xbc0c5999	-0.008566284
131	0xbd373a94	-0.0447336
132	0x3e4fbb0a	0.20286193
133	0xbd4e2d44	-0.050336137
134	0xbd5d1ff5	-0.053985555
135	0xbdf0177c	-0.11723229
136	0xbd9b46ce	-0.07581864
137	0x3d3ff3b0	0.046863258
138	0xbc5c13e7	-0.013432479
139	0xbe458036	-0.1928719
140	0x3de52e15	0.1119043
141	0x3dadee11	0.08492673
142	0xbd8aec76	-0.067833826
143	0xbe24c728	-0.16091597
144	0x3dc27f91	0.094969876
145	0xbda33774	-0.07969561
146	0xbc285c00	-0.010275841
147	0x3d5aa6c1	0.053381685
148	0xbddfd6ee	-0.109296665
149	0xbd2e232d	-0.042514015
150	0xbcf14e29	-0.029456215
151	0xbd0bfea1	-0.03417838
152	0x3d601f86	0.054717563
153	0xbd90b485	-0.07065681
154	0xbc58847f	-0.013215183
155	0x3dbb5249	0.09146554
156	0xbd9de3f3	-0.077094935
157	0x3cef1a66	0.029187392
158	0x3ced39bf	0.0289582
159	0x3ce84e8a	0.028357763
160	0x3cb62f4a	0.022239346
161	0xbd5f709a	-0.054550745
162	0x3bf157ed	0.007365218
163	0x3cc45697	0.02396707
164	0xbe120cf3	-0.14262752
165	0xbd1a7a71	-0.037714425
166	0x3bea2678	0.007145699
167	0x3c99cf4b	0.018775603
168	0xbdea2ac8	-0.11433941
169	0x3d8661de	0.065616354
170	0x3d372f96	0.044723116
171	0xbe1149ce	-0.1418831
172	0xbde03bde	-0.10948919
173	0xbe1b67d0	-0.1517632
174	0xbad220fe	-0.0016031561
175	0xbe0f7d6f	-0.14012693
176	0xbde59aeb	-0.11211189
177	0x3bcb041d	0.0061955587
178	0x3d3e75f3	0.046499204
179	0xbd2f9a1c	-0.04287158
180	0xbdffe10d	-0.12494097
181	0xbe119834	-0.14218217
182	0x3c41982f	0.011816069
183	0xbbfd9e0a	-0.007739787
184	0xbc6d4df4	-0.0144839175
185	0x3c85ded3	0.016341602
186	0x3d47560c	0.048666045
187	0xbdb7df0d	-0.089780904
188	0xbd86bca6	-0.065789506
189	0xbdb5bd2e	-0.08873974
190	0x3c1e431c	0.009659555
191	0xbc94839c	-0.018129162
192	0x3dbab888	0.09117228
193	0xbcc71f70	-0.024306983
194	0xbc9a8ee7	-0.01886697
195	0xbdda8ecb	-0.10671767
196	0x3c3da51e	0.011575012
197	0x3ba6dc86	0.0050922064
198	0x3dc037b3	0.09385624
199	0xbdea6d56	-0.114466354
200	0x3d80d1c4	0.062900096
201	0xbd29a499	-0.04141674
202	0xbd092cbf	-0.03348994
203	0xbdc716b8	-0.0972113
204	0xbbb1ccfa	-0.0054260464
205	0xbce80462	-0.028322402
206	0x3c9cd335	0.01914368
207	0x3c82adaa	0.01595195
208	0x3de2550a	0.11051376
209	0xbdb0f6fb	-0.08640858
210	0xbd0501b5	-0.03247233
211	0x3da68200	0.08130264
212	0xbd57d2b9	-0.052691195
213	0xbe28ff1a	-0.16503564
214	0xbdb3a380	-0.087714195
215	0x3c2b9745	0.010473077
216	0xbd809e82	-0.06280233
217	0x3e2a527d	0.1663303
218	0x3d8a87d7	0.06764191
219	0x3d8266b0	0.06367242
220	0xbb48c432	-0.003063452
221	0x3de39540	0.111124516
222	0xbc885323	-0.016641205
223	0x3db37800	0.087631226
224	0xbde52e2f	-0.111904494
225	0x3e08efc9	0.13372721
226	0x3d5654bd	0.052326906
227	0xbca770a3	-0.020439452
228	0x3d4840a6	0.04888978
229	0x3c738e3b	0.014865453
230	0x3d08c796	0.033393465
231	0xbda2fb36	-0.07958071
232	0xbc454081	-0.012039305
233	0x3e2c6b0c	0.1683771
234	0x3d0a6952	0.033791848
235	0xbd54cf89	-0.051955733
236	0x3e184ee2	0.14873841
237	0x3c99061e	0.018679675
238	0xbd8bb8e5	-0.06822375
239	0x3c44cace	0.012011243
240	0x3c44900b	0.011997233
241	0xbdae6480	-0.085152626
242	0xbb25b877	-0.0025286952
243	0xbd177fff	-0.0369873
244	0xbd0fc775	-0.035102326
245	0xbcc54135	-0.024078945
246	0x3d4c668c	0.049902484
247	0x3d10e03a	0.03537009
248	0xbd46a51c	-0.048497304
249	0xbe19e17c	-0.15027422
250	0x3cd1cada	0.025609422
251	0x3b1a13f0	0.0023510419
252	0x3ce7eb50	0.028310448
253	0xbd596d46	-0.053082727
254	0x3dbc9e75	0.09209911
255	0xbc56915a	-0.013096178

fc1.bias f4 [256]
0	0x3d4929cc	0.049112126
1	0x3e3cdc92	0.18443516
2	0xbdf100e9	-0.11767752
3	0x3e262e2e	0.16228554
4	0x3e599c1b	0.21250956
5	0xbdb47639	-0.08811612
6	0x3e1798da	0.14804402
7	0xbc136256	-0.008995613
8	0x3e19a289	0.15003408
9	0xbdad28cf	-0.08455049
10	0xbd49bbab	-0.04925124
11	0xbdecca5a	-0.11562033
12	0x3d3d3f72	0.046203084
13	0xbd9e983e	-0.07743882
14	0x3b1197ae	0.0022215652
15	0xbe2a90b2	-0.1665676
16	0xbe18a0b5	-0.14905055
17	0x3c9cfbb9	0.019163
18	0x3defbdaf	0.11706101
19	0x3cf8a90f	0.03035405
20	0xbe222600	-0.15834808
21	0x3e100bea	0.14067045
22	0x3e1e9fb3	0.15490608
23	0xbd1b21ac	-0.03787391
24	0xbcc38259	-0.023865866
25	0xbcde15b3	-0.027109956
26	0xbe646573	-0.22304325
27	0x3d80bff4	0.06286612
28	0x3da29708	0.07938963
29	0x3b2f5b13	0.0026757165
30	0xbd37a9c6	-0.044839643
31	0xbd758565	-0.059941668
32	0xbd4b69ef	-0.049661573
33	0xbded733d	-0.115942456
34	0x3e4fbbd3	0.20286493
35	0x3cd27105	0.025688658
36	0xbdc18137	-0.09448474
37	0xbe12d96e	-0.14340755
38	0x3e878276	0.2646672
39	0x3e27cccf	0.16386722
40	0x3e461595	0.1934417
41	0xbe36658e	-0.17812178
42	0x3d1ee6f0	0.038794458
43	0x3e0840dc	0.13305992
44	0xbd9c464a	-0.07630594
45	0x3e4450cc	0.19171447
46	0x3e2015da	0.15633336
47	0x3e1ca460	0.15297079
48	0xbdb2d27c	-0.08731553
49	0x3d85f90f	0.06541645
50	0x3e410b95	0.18852074
51	0xbdab9072	-0.0837716
52	0xbc847437	-0.016168697
53	0xbd47a7a2	-0.04874385
54	0xbdde4cb5	-0.108544745
55	0xbe49472d	-0.19656058
56	0x3c9bb9bd	0.019009465
57	0xbe129127	-0.14313184
58	0xbd7595bf	-0.059957262
59	0x3e2b7cda	0.16746846
60	0x3e3319f6	0.17490372
61	0x3d2200d5	0.039551575
62	0xbe0d2e1c	-0.1378712
63	0x3dea1f60	0.114317656
64	0xbe16298d	-0.14664288
65	0xbe10f470	-0.14155746
66	0x3db3015c	0.08740494
67	0x3dadd747	0.084883265
68	0x3dff5522	0.1246741
69	0x3da78344	0.08179334
70	0xbe22c47a	-0.15895262
71	0xbd0060c9	-0.0313423
72	0xbe6420ed	-0.22278185
73	0xbe6f02dd	-0.23340936
74	0x3e4165c8	0.18886483
75	0xbe8039bf	-0.25044057
76	0xbd8f3735	-0.06992952
77	0xbe2da500	-0.16957474
78	0xbdcda763	-0.10041692
79	0x3e2b2560	0.16713476
80	0x3de8415d	0.11340592
81	0xbe3e21f0	-0.18567634
82	0x3e133c84	0.14378554
83	0x3e372883	0.17886548
84	0x3de9ce52	0.114163056
85	0x3de3880b	0.111099325
86	0x3d01e941	0.03171659
87	0xbd55f2de	-0.05223357
88	0xbdce7af6	-0.10082047
89	0xbe12ea53	-0.143472
90	0x3d79663d	0.060888518
91	0x3d8d8ea4	0.06911972
92	0xbd0692bf	-0.03285479
93	0xbddfdc7a	-0.109307244
94	0x3e38d3ce	0.18049547
95	0xbe032743	-0.12807946
96	0x3e895c65	0.26828304
97	0x3e60340d	0.21894856
98	0xbce7d3d7	-0.028299255
99	0xbd88529a	-0.0665638
100	0xbdb52a4d	-0.08845959
101	0x3d7c2746	0.06156089
102	0x3cc26a26	0.023732256
103	0xbde95b6d	-0.11394391
104	0xbd61bbf5	-0.05511089
105	0xbdcbd4f4	-0.09952727
106	0xbd0b1e5c	-0.0339645
107	0x3da206c7	0.07911449
108	0xbe0231b0	-0.12714267
109	0x3cec3713	0.028834855
110	0x3e1a51f1	0.1507032
111	0xbd4b81e7	-0.04968443
112	0x3d1eb425	0.038746018
113	0xbdf6a1f3	-0.12042608
114	0x3d586654	0.052831963
115	0xbdb9d17d	-0.0907316
116	0xbdf5a2fb	-0.11993977
117	0x3d8549a2	0.06508185
118	0x3dfda316	0.12384622
119	0xbdfc4339	-0.12317509
120	0xbde6fc8b	-0.112786375
121	0x3e3912a3	0.18073516
122	0xbdf7dae8	-0.121023
123	0x3d441ec5	0.047880907
124	0xbe0e6025	-0.13903864
125	0x3e302fcb	0.17205732
126	0x3e717860	0.23581076
127	0xbe2f85ba	-0.17140856
128	0x3e376856	0.17910895
129	0xbd04300b	-0.03227238
130	0xbc94bdf7	-0.018156989
131	0xbd014c21	-0.031566743
132	0x3dae9f58	0.08526486
133	0x3e231a57	0.15928017
134	0xbd886423	-0.066597246
135	0x3e062062	0.1309829
136	0xbbc3e3ad	-0.005978069
137	0x3c8b8bf5	0.01703451
138	0xbe25d19f	-0.16193245
139	0x3e1c9ac1	0.15293409
140	0x3b37d812	0.0028052372
141	0x3d2fb6d6	0.042898975
142	0xbd6f8f15	-0.058486063
143	0xbd1aa905	-0.037758846
144	0xbdad597b	-0.08464333
145	0x3e50a0ec	0.20373887
146	0x3e1c95cc	0.15291518
147	0x3da693d0	0.08133662
148	0x3e52fe2b	0.2060477
149	0xbd0a561d	-0.03377353
150	0x3e2e9eb1	0.17052723
151	0x3ca9b0e6	0.020714235
152	0x3d4d6416	0.050144278
153	0xbe0b4133	-0.1359909
154	0x3de1ac60	0.11019206
155	0xbe0aec62	-0.13566735
156	0x3cffeb0a	0.031240005
157	0x3d03b163	0.03215159
158	0x3c64b909	0.013960131
159	0xbdfde9d9	-0.123981185
160	0x3d0206b2	0.031744666
161	0xbe5645be	-0.20925042
162	0xbd739ec9	-0.0594776
163	0x3e40a67b	0.18813507
164	0xbda74682	-0.08167745
165	0x3b909d7f	0.0044133062
166	0x3dde5d6b	0.10857662
167	0xbd500e77	-0.050795045
168	0xbcbd33b1	-0.023095937
169	0xbe3791e2	-0.17926744
170	0x3c27547f	0.0102130165
171	0x3e4749c0	0.19461727
172	0x3e0c2f3d	0.13689895
173	0xbb4cf88f	-0.0031276082
174	0x3e24f0c3	0.16107468
175	0x3e21647d	0.1576099
176	0xbd09423b	-0.033510428
177	0x3d050ede	0.03248488
178	0x3db9d6bc	0.090741605
179	0xbdb4c90a	-0.08827408
180	0x3e226177	0.15857492
181	0x3df3a9e8	0.118976414
182	0x3e056383	0.13026242
183	0x3db5ecfb	0.08883091
184	0xbe06b9e5	-0.1315685
185	0xbd8c4a93	-0.068501614
186	0xbe1482c5	-0.1450301
187	0xbe487c92	-0.1957877
188	0x3d821893	0.063523434
189	0x3d289383	0.041156303
190	0xbd5274ea	-0.05138103
191	0x3e654c86	0.22392473
192	0x3e472cf3	0.1945074
193	0xbd54c3d2	-0.05194456
194	0xbd7001a5	-0.05859532
195	0xbd8b2d54	-0.06795755
196	0xbdae5a59	-0.08513326
197	0x3d51ef24	0.051253453
198	0x3d6c53d8	0.057697147
199	0x3dd68302	0.104742065
200	0x3e186711	0.14883067
201	0x3e351704	0.17684561
202	0x3d887117	0.06662195
203	0x3e0c6361	0.13709785
204	0x3df47c68	0.11937791
205	0x3e62f37d	0.22163196
206	0x3e05d97c	0.13071245
207	0xbe17896c	-0.14798516
208	0x3e319fd5	0.17346127
209	0xbdb53f8e	-0.08850013
210	0x3e566450	0.20936704
211	0xbe17fd38	-0.14842689
212	0xbdeb480d	-0.11488352
213	0x3e71afa0	0.23602152
214	0xbc9981dd	-0.018738681
215	0x3d754f85	0.05989029
216	0x3e22eb2e	0.15910026
217	0x3e049f17	0.12951313
218	0x3bf324bc	0.0074201506
219	0xbe27f725	-0.16402872
220	0x3e0dba67	0.13840638
221	0xbde97ead	-0.114011146
222	0xbccddb9f	-0.025129138
223	0x3cee1012	0.029060397
224	0x3dba28ab	0.09089788
225	0xbe0fd839	-0.14047326
226	0x3e1bccba	0.15214816
227	0xbe196c95	-0.14982827
228	0x3d4f2a64	0.050577536
229	0x3dbb07bf	0.09132337
230	0x3d7dcd96	0.06196364
231	0x3d9bad88	0.07601458
232	0x3d89947c	0.06717774
233	0xbdfaefa3	-0.12252738
234	0xbe33843c	-0.17530912
235	0x3d9180fd	0.07104681
236	0x3dd68b71	0.10475815
237	0x3e16d07c	0.14727968
238	0xbe0584b5	-0.13038905
239	0xbda9c3b0	-0.082892776
240	0x3d263b7c	0.040584072
241	0xbddb2454	-0.107002884
242	0x3e30e8c1	0.17276289
243	0xbe5ba07b	-0.21447937
244	0xbd329773	-0.043601464
245	0x3e3a2ca3	0.1818109
246	0xbe184494	-0.1486991
247	0x3dd2a197	0.10284727
248	0xbdd72d64	-0.105067044
249	0xbd44f3bf	-0.048084017
250	0x3c70a61a	0.014688039
251	0x3daadedc	0.08343288
252	0x3dfc410c	0.12317094
253	0x3e376d83	0.17912869
254	0x3dedfc91	0.11620439
255	0x3d57f1ee	0.052720957

fc2.weight f4 [128, 256]
0	0x3dafee4b	0.08590373
1	0xbd748e78	-0.05970618
2	0x3d82bce9	0.06383688
3	0x3de6e76a	0.112746075
4	0xbd6616d4	-0.056174114
5	0x3dad3dfc	0.08459088
6	0x3cdf1dd8	0.02723591
7	0x3e257056	0.16156134
8	0xb9b9751a	-0.00035373197
9	0xbd6fb126	-0.05851855
10	0xbdd78051	-0.10522521
11	0x3dad4822	0.08461024
12	0x3d749387	0.059711006
13	0x3db27ec3	0.08715584
14	0x3d47df83	0.04879714
15	0xbcdb40a2	-0.026764218
16	0xbe0860a6	-0.13318118
17	0x3deefd1a	0.11669369
18	0xbb2aa8ed	-0.002604063
19	0xbb5d4d0f	-0.0033767854
20	0x3d23cc08	0.0399895
21	0x3bec138d	0.007204479
22	0xbdb26d85	-0.087122954
23	0xbd305c72	-0.043056913
24	0xbd33f381	-0.043933395
25	0x3c3ea6c3	0.011636439
26	0x3d653d08	0.055966407
27	0x3d4de4de	0.050267093
28	0x3e0e18da	0.13876668
29	0xbd898ad6	-0.06715934
30	0xbd3886d0	-0.045050442
31	0x3b6f8a5b	0.0036550972
32	0xbde72cd8	-0.1128785
33	0xbd0940b9	-0.03350899
34	0x3d6a122c	0.057146236
35	0x3d34335a	0.043994285
36	0x3e0a6113	0.13513593
37	0xbae8e898	-0.0017769514
38	0x3d703e4c	0.05865316
39	0xbc0fd729	-0.0087793255
40	0xbdedaf5a	-0.11605711
41	0x3d49a33b	0.049227934
42	0x3d8e4573	0.0694684
43	0x3d3b2b0f	0.04569536
44	0x3d44217a	0.04788349
45	0x3cf32666	0.029681396
46	0xbde359a4	-0.11101082
47	0xbc2e4786	-0.01063717
48	0xbd6b83ba	-0.05749867
49	0x3e01cfcc	0.12676924
50	0x3d2aae0c	0.04166989
51	0xbdb8ca09	-0.0902291
52	0x3d89fc80	0.06737614
53	0x3d9a12f8	0.07523149
54	0x3dc59ef5	0.09649459
55	0x3dced456	0.100990936
56	0x3d739cae	0.059475593
57	0x3af3a028	0.0018587159
58	0xbe269022	-0.1626592
59	0xbcc4a0bb	-0.024002424
60	0x3db54e1e	0.0885279
61	0x3dd5a364	0.10431555
62	0x3d485838	0.048912257
63	0xbdc913e1	-0.09818245
64	0x3bfa6385	0.007641258
65	0xbda86f1b	-0.08224317
66	0xbd978745	-0.073988475
67	0xbd08bbb4	-0.033382133
68	0xbb6712c6	-0.0035258993
69	0xbe10b493	-0.14131384
70	0x3ccde7c6	0.025134932
71	0xbd8144b3	-0.063119315
72	0xbd7a8fb1	-0.06117219
73	0xbe08b18c	-0.13348979
74	0x3d4b0fbf	0.049575564
75	0xbe0b0b1a	-0.13578454
76	0x3d2542af	0.040346798
77	0x3c238d6a	0.009982446
78	0x3ce86764	0.028369613
79	0xbce5fa33	-0.028073406
80	0x3cf19e34	0.029494382
81	0xbd3c72bc	-0.046007857
82	0x3d5d6ab4	0.05405684
83	0x3d17547d	0.03694581
84	0x3c6f3f3d	0.0146024795
85	0xbe52bf5e	-0.20580813
86	0xbe196acc	-0.14982146
87	0xbde93864	-0.11387709
88	0xbdd64a51	-0.104633935
89	0xbdcbe729	-0.099562
90	0xbc93eeab	-0.018058142
91	0xbd440439	-0.04785559
92	0x3b99acc0	0.004689783
93	0xbd89eb4e	-0.06734334
94	0xbd8194bd	-0.06327198
95	0x3db7d349	0.08975846
96	0x3cd36117	0.025803132
97	0x3c3cd3d2	0.011525111
98	0xbe0ec99e	-0.13944098
99	0xbda80225	-0.08203534
100	0x3c46ce6f	0.012134179
101	0xbc2abc01	-0.0104208
102	0x3db3d51c	0.08780882
103	0x3dcf2f54	0.10116449
104	0xbcbd5ac5	-0.023114571
105	0x3dc66a9f	0.09688305
106	0x3d8b3f8e	0.067992315
107	0x3d102c75	0.035198648
108	0xbe13278f	-0.14370559
109	0xbdc8a8bc	-0.097978085
110	0x3d46e436	0.048557483
111	0xbd78fe06	-0.06078913
112	0x3d748f90	0.059707224
113	0xbdea1a05	-0.11430744
114	0xbd864422	-0.06555964
115	0xbd123e1e	-0.03570377
116	0xbb486dd1	-0.0030583034
117	0xbdec6e84	-0.11544517
118	0xba109e35	-0.0005516739
119	0xbcdab845	-0.026699195
120	0xbdccb373	-0.09995165
121	0xbcbd1555	-0.023081461
122	0xbc934f7c	-0.017982237
123	0xbdd0e3e1	-0.101997145
124	0xbd00cda2	-0.031446107
125	0xbd535cbc	-0.05160211
126	0xbc45ec66	-0.012080288
127	0x3d3cf43b	0.046131354
128	0xbc89b267	-0.016808702
129	0x3dddd387	0.10831361
130	0x3d3667cc	0.044532582
131	0xbcfc4b4e	-0.030797627
132	0x3cf0123a	0.029305566
133	0x3c798f90	0.015231982
134	0xbda4635b	-0.08026763
135	0x3b9bbb86	0.004752579
136	0x3ddaa0c7	0.10675197
137	0xbe06b7fd	-0.13156123
138	0xbd93ebc6	-0.072227046
139	0x3d23f726	0.04003062
140	0x3c845f4b	0.01615872
141	0x3d716fa7	0.05894437
142	0xbd9705da	-0.07374163
143	0xbdc5bbd8	-0.09654969
144	0x3d5cb1a5	0.053880353
145	0xbd95cb78	-0.07314199
146	0xbd665920	-0.05623734
147	0x3c59d68b	0.01329578
148	0x3d5f8b14	0.054575995
149	0x3c4e6f6b	0.012599806
150	0x3d0bc2a7	0.03412118
151	0x3e211c96	0.15733561
152	0x3dce15d0	0.10062754
153	0xbd503a65	-0.05083694
154	0x3d655d84	0.055997387
155	0xbcbd952d	-0.023142422
156	0x3d39cec2	0.045363195
157	0xbd078aeb	-0.033091467
158	0xbd1a7eed	-0.037718702
159	0x3d1aa323	0.037753236
160	0xbd7caed8	-0.06169018
161	0xbc1eb132	-0.009685801
162	0x3d6a9cba	0.057278372
163	0xbce5ff36	-0.028075796
164	0xbe31ac00	-0.17350769
165	0xbd04f219	-0.032457445
166	0x3dd11807	0.10209661
167	0xbdff0ddb	-0.124538146
168	0x3c899b6b	0.016797742
169	0xbd975879	-0.07389922
170	0xbe17c64c	-0.14821738
171	0xb80af718	-3.3131888e-05
172	0x3c563f80	0.013076663
173	0x3de0491a	0.10951443
174	0x3d80b76f	0.06284987
175	0xbdc609e7	-0.096698575
176	0xbce51588	-0.027964368
177	0xbc86be04	-0.016448028
178	0x3ce2859f	0.027651606
179	0x3d572ee8	0.052534968
180	0xbd302799	-0.043006513
181	0x3d9ac3a0	0.07556844
182	0x3d3c457d	0.045964707
183	0x3e10eddd	0.14153238
184	0x3dfb2a7f	0.12263965
185	0x3d3bd45a	0.04585681
186	0xbd0a8d5c	-0.033826217
187	0xbd70a704	-0.05875303
188	0x3d6bd312	0.05757434
189	0xbd160ca0	-0.036633134
190	0x3dbf0031	0.093262084
191	0xbd0d8819	-0.03455362
192	0x3d8c2414	0.06842819
193	0x3d0fcd44	0.035107866
194	0x3d0e319d	0.034715284
195	0x3e15e788	0.14639103
196	0xbcd1c7c9	-0.02560796
197	0xbd858b12	-0.06520666
198	0xbd55578e	-0.05208545
199	0xbbdc2995	-0.006718824
200	0x3d0d84a1	0.034550313
201	0x3db5d4f4	0.08878508
202	0xbc938ea3	-0.01801235
203	0xbdd68992	-0.10475458
204	0xbdf89f74	-0.12139788
205	0x3c9ac6d6	0.01889364
206	0x3dcf928e	0.10135375
207	0x3d3e5bb5	0.046474177
208	0xbd57901d	-0.05262767
209	0xbc607288	-0.013699181
210	0x3cf01c32	0.02931032
211	0x3c8518c4	0.01624716
212	0xbd1494d9	-0.036274765
213	0x3d5c019f	0.053712483
214	0xbd9b7404	-0.075904876
215	0x3d2521c7	0.040315416
216	0x3e213082	0.1574116
217	0x3d304d52	0.04304249
218	0x3dbd1a72	0.0923356
219	0x3d8b0e17	0.06789797
220	0x3d08d341	0.033404592
221	0xbd26f8b5	-0.04076453
222	0x3dbffa67	0.09373932
223	0xbd1b6332	-0.037936397
224	0xbd2482ed	-0.040163923
225	0x3c3c1bca	0.011481235
226	0x3e0fb62d	0.14034338
227	0x3d59c67a	0.053167798
228	0x3d7d651b	0.061864
229	0xbb7074c9	-0.0036690703
230	0x3de71bc7	0.11284595
231	0xbdbd212b	-0.09234842
232	0xbc7b9e7c	-0.01535761
233	0xbd828609	-0.063732214
234	0xbd9d97db	-0.0769498
235	0xbdf0733d	-0.1174073
236	0x3d7da872	0.06192822
237	0xbda8fc94	-0.082513005
238	0x3d376d36	0.044781886
239	0x3c7683fe	0.015046118
240	0x3e3252d3	0.17414407
241	0x3bcebee0	0.006309375
242	0xbd2a4a16	-0.04157456
243	0x3db67eb7	0.08910888
244	0xbdac405a	-0.084107116
245	0x3d90ce3a	0.070705846
246	0xbe00c4fa	-0.1257514
247	0x3d35b65c	0.044363365
248	0x3e0131aa	0.12616602
249	0xbe1483b2	-0.14503363
250	0x3cf76573	0.030199742
251	0x3d786acc	0.060648724
252	0xbd443ce4	-0.047909632
253	0x3e055280	0.13019753
254	0x3d6d429d	0.057924856
255	0x3da589d4	0.08082929

fc2.bias f4 [128]
0	0x3d8edfee	0.06976305
1	0x3d8ce97f	0.06880473
2	0xbc8e5d0a	-0.017378349
3	0xbd184b3b	-0.03718112
4	0x3b26a43f	0.0025427488
5	0x3d624dc4	0.055249944
6	0x3d6096ac	0.054831192
7	0x3c9e0f5a	0.01929443
8	0xbc084243	-0.008316579
9	0xbdd391ed	-0.103305675
10	0x3bdc803d	0.0067291544
11	0x3d7cbdde	0.06170451
12	0xbc9e3402	-0.019311909
13	0x3d2096d1	0.03920633
14	0xbd0fa6ac	-0.03507106
15	0x3d85c1b6	0.06531088
16	0xbd62162f	-0.055196937
17	0xbaa93761	-0.0012910181
18	0xbcbe4df0	-0.023230523
19	0x3c62da11	0.013845936
20	0xbb3aed4e	-0.0028522792
21	0x3bed28d8	0.007237535
22	0x3c45c55c	0.01207098
23	0x3d902695	0.07038609
24	0x3daff175	0.08590976
25	0x3c5ea5e6	0.013589358
26	0x3c34830e	0.011017574
27	0x3cea6384	0.028611906
28	0xbbf769dc	-0.007550461
29	0x3c91e598	0.017809674
30	0x3d29bb79	0.041438553
31	0x3de6e1fa	0.1127357
32	0x3d87e8f3	0.066362284
33	0xbd2f6e12	-0.04282958
34	0x3d8e4898	0.0694744
35	0x3cc93f4c	0.024566315
36	0xbbf1b194	-0.0073759053
37	0x3d205600	0.039144516
38	0xbcabb556	-0.020960491
39	0x3bb42d7e	0.005498587
40	0xbd0b592d	-0.03402059
41	0x3d186169	0.037202273
42	0x3d348478	0.044071645
43	0xbbe591d1	-0.007005908
44	0x3d33cedd	0.043898452
45	0x3db28727	0.087171845
46	0x3db6ccdc	0.089257926
47	0x3da5b78a	0.08091648
48	0x3d25d9aa	0.040490784
49	0xbb64b23a	-0.003489627
50	0x3de7887f	0.113053314
51	0x3d5f0625	0.05444922
52	0x3e044376	0.1291636
53	0x3ce103bf	0.027467607
54	0x3d5daac5	0.054117937
55	0x3d5d094b	0.05396394
56	0x3dc0bd1c	0.0941107
57	0xbcb87bf5	-0.022520045
58	0x3d5e74ff	0.054310795
59	0x3d8fbec1	0.07018805
60	0x3c65afef	0.014018997
61	0xbd9ed25e	-0.07754968
62	0x3d418700	0.047247887
63	0x3d5541f2	0.052064843
64	0x3b4f323e	0.003161564
65	0xbc2cff2f	-0.010558887
66	0xbbf21875	-0.0073881694
67	0xbcc94c0d	-0.024572397
68	0x3d0b9a7a	0.034082867
69	0xbd519dfe	-0.051176064
70	0xbb0ae6c9	-0.0021194688
71	0x3cdf3bc2	0.027250174
72	0x3c874d3b	0.016516319
73	0x3c94fcce	0.018186953
74	0xbd26516c	-0.040604994
75	0x3db7b21b	0.08969518
76	0x3d978586	0.073985144
77	0xbca4fd73	-0.020140385
78	0xbc4e43c0	-0.012589395
79	0x3db81783	0.089888595
80	0x3c6923e5	0.014229749
81	0x3da3475a	0.079725936
82	0x3c99f6a4	0.018794365
83	0xbd161536	-0.036641322
84	0x3cd417b6	0.025890213
85	0x3ddc2037	0.10748332
86	0x3c53bb35	0.012923052
87	0x3d9139f0	0.07091129
88	0x3c81d84c	0.015850209
89	0x3d7c8f7e	0.061660282
90	0x3ce46324	0.027879305
91	0x3cb9e50d	0.022692228
92	0x3d111514	0.035420492
93	0x3d89f212	0.067356244
94	0x3d5ce8b7	0.05393287
95	0x3d531c74	0.051540807
96	0xbd0b9846	-0.034080766
97	0xbd244924	-0.040108815
98	0x3dd67c8d	0.10472975
99	0xbb3d75f3	-0.0028909415
100	0xbc8ab3d3	-0.01693145
101	0x3da30f82	0.07961942
102	0x3ceea1ad	0.029129827
103	0x3e02465f	0.12722157
104	0x3c957898	0.01824598
105	0xbd4d1c0f	-0.050075587
106	0x3ccf460a	0.025301952
107	0xbb882d59	-0.0041557965
108	0x3e00c187	0.12573825
109	0x3c16c9dc	0.0092034
110	0x3d509243	0.050920736
111	0x3d0409dc	0.032235965
112	0x3d23745d	0.039905895
113	0xbc69b8df	-0.014265268
114	0x3dc93a2a	0.09825547
115	0x3c8e054e	0.017336514
116	0xbd107473	-0.035267305
117	0x3c4ebf9a	0.012618924
118	0x3d96cdd7	0.073634796
119	0x3c8d6f31	0.017264934
120	0xbd3e1320	-0.046404958
121	0x3cc07bfe	0.023496624
122	0x3c903558	0.017603561
123	0x3cb2246a	0.02174588
124	0x3cc52b59	0.024068521
125	0xbc8a7442	-0.01690114
126	0x3d8735d5	0.066020645
127	0xbdda5ad1	-0.10661853

fc3.weight f4 [2, 128]
0	0xbc84eab4	-0.016225196
1	0xbd31510d	-0.043290187
2	0xbc64a9bd	-0.013956484
3	0xbe208a45	-0.15677746
4	0x3d0c789e	0.034294717
5	0x3d1d02a5	0.0383326
6	0xbb2b45d5	-0.0026134152
7	0xbd2f9219	-0.04286394
8	0x3c4971ab	0.012295167
9	0x3eb4a455	0.35281625
10	0xbdcf995c	-0.10136673
11	0xbdd75caa	-0.10515721
12	0x3d697572	0.05699677
13	0x3d44ba56	0.048029266
14	0x3e93aef2	0.2884441
15	0xbb4e9f9c	-0.003152824
16	0xbb1166b2	-0.0022186455
17	0x3d721fa3	0.059112202
18	0x3b6b4232	0.003589761
19	0x3c45b5da	0.012067283
20	0x3d031ad4	0.032008007
21	0xbc7a801c	-0.015289333
22	0x3cbe7c86	0.023252737
23	0xbc6c2c14	-0.014414806
24	0x3d5c9e65	0.053861994
25	0x3ce44fc3	0.027870065
26	0x3cf71cfc	0.030165188
27	0x3deefda5	0.116694726
28	0x3dc22370	0.094794154
29	0x3d7115ca	0.05885867
30	0x3d9d25da	0.07673235
31	0xbd79a2b4	-0.06094618
32	0x3caeb14e	0.02132478
33	0xbec8bf41	-0.39208415
34	0xbd446c81	-0.04795504
35	0x3d8dd794	0.06925884
36	0x3cbe150c	0.023203395
37	0x3d81ef7f	0.063445084
38	0x3b955481	0.004557193
39	0x3c7e95fc	0.015538689
40	0x3d84a16b	0.064761005
41	0x3a65f1fc	0.0008771715
42	0xb9f307c9	-0.00046354372
43	0x3c16ba4a	0.009199688
44	0xbcae0fdf	-0.021247802
45	0xbd313bdd	-0.04326998
46	0xbd0e195c	-0.034692153
47	0xbd69554c	-0.05696611
48	0x3d8d00a5	0.068848886
49	0x3c9104f1	0.017702552
50	0x3c70e0ac	0.014702003
51	0xbcf45f23	-0.029830521
52	0x3ce52088	0.027969614
53	0x3c6606c5	0.0140397
54	0xbe1b88de	-0.1518893
55	0xbca920b6	-0.02064548
56	0x3cfe7415	0.031061212
57	0x3e276e27	0.16350614
58	0x3d8190c3	0.06326439
59	0x3d02dba2	0.03194774
60	0x3bc7ee5d	0.006101413
61	0xbd99b74a	-0.07505663
62	0x3c6e01cb	0.014526795
63	0x3d8d7033	0.06906166
64	0xbcb4e06a	-0.022079665
65	0x3d8f60f4	0.07000914
66	0x3c841113	0.016121423
67	0xbdb39077	-0.08767789
68	0xbd06b0fb	-0.032883625
69	0xbd895f71	-0.06707657
70	0xbd5ce1bd	-0.05392622
71	0xbcaa306d	-0.020775044
72	0xbd531b72	-0.051539846
73	0xbcfc10ee	-0.030769791
74	0xbd0b385c	-0.033989295
75	0xbcb4b57d	-0.022059197
76	0x3cd170d2	0.025566492
77	0x3d3e2be4	0.046428576
78	0x3d9aa0ae	0.075501785
79	0x3dd3d0d9	0.10342569
80	0x3d289dc3	0.04116608
81	0x3d7fe47d	0.062473763
82	0xbdab749c	-0.08371851
83	0x3e31c01a	0.17358437
84	0xbcc7b9df	-0.024380622
85	0xbc080bbe	-0.008303581
86	0xbd492de5	-0.049116034
87	0x3cbf2121	0.023331227
88	0x3d10a675	0.035314996
89	0xbd80bdc7	-0.06286197
90	0xbc9fb7d9	-0.019496845
91	0x3d0b422f	0.033998664
92	0x3e03dd59	0.12877406
93	0x3d382722	0.044959195
94	0xbc13689a	-0.008997107
95	0xbc60810f	-0.013702645
96	0x3c9cd5bb	0.019144883
97	0x3ca4e562	0.02012891
98	0x3e6f7deb	0.23387878
99	0xbc82bbb7	-0.01595865
100	0x3c7f56f9	0.015584701
101	0xbd18a458	-0.037266105
102	0xbd92eec4	-0.07174447
103	0xbc8cd082	-0.017189268
104	0x3d5adb33	0.0534317
105	0xbc91a8f8	-0.017780766
106	0xbc93fa79	-0.01806377
107	0x3d291623	0.041280877
108	0x3e8c42a6	0.273946
109	0x3e3bb483	0.18330579
110	0xbd86df11	-0.06585515
111	0x3c8ec1db	0.017426422
112	0xbb3ec441	-0.0029108676
113	0xbd97bdd8	-0.07409257
114	0x3dec2296	0.11530034
115	0xbd13c2ee	-0.03607457
116	0xbe01edd0	-0.12688375
117	0x3ea65583	0.32487115
118	0x3ce8fee3	0.028441852
119	0x3cc2ab37	0.023763282
120	0x3d024552	0.03180439
121	0x3b871b13	0.0041231005
122	0xbca4ef94	-0.020133771
123	0xbb1966ba	-0.0023407177
124	0x3dd5da6e	0.10442053
125	0xbbbd2be4	-0.0057730544
126	0x3d243544	0.04008986
127	0xbe5cce8f	-0.21563171
128	0x3e3bcac8	0.18339074
129	0xba931731	-0.0011222122
130	0x3e3a4a92	0.18192509
131	0xbd10e9fa	-0.035379387
132	0xbc924262	-0.01785392
133	0xbe2ea90b	-0.17056672
134	0x3e3cadc2	0.18425658
135	0xbd44069e	-0.047857873
136	0x3d3050e2	0.043045886
137	0xbdb248be	-0.08705281
138	0xbe201226	-0.15631923
139	0xbbb33f10	-0.005470164
140	0xbd9ffdc5	-0.078120746
141	0xbc983032	-0.018577669
142	0xbdcd34a8	-0.10019809
143	0xbd9961a7	-0.07489329
144	0xbd4b6813	-0.0496598
145	0xbd98da13	-0.07463469
146	0xbe01843a	-0.12648097
147	0xbd89c2dc	-0.067266196
148	0x3cc629f7	0.024189932
149	0xbd55beda	-0.052183963
150	0x3e43b45f	0.19111775
151	0x3eb7950d	0.35855904
152	0x3e2f284f	0.1710522
153	0xbd1e5851	-0.038658444
154	0xbc15e22a	-0.00914816
155	0xbc03b02d	-0.008037609
156	0x3c86fe64	0.016478725
157	0x3d7eb2bd	0.062182177
158	0xbe56e193	-0.20984487
159	0x3e493380	0.19648552
160	0xbc1f6c71	-0.009730444
161	0xbcc625bb	-0.024187913
162	0x3e0d9e31	0.13829876
163	0xbd9047e2	-0.070449606
164	0xbd20b84b	-0.039238255
165	0xbdc0268a	-0.09382351
166	0x3d83ddb0	0.06438768
167	0x3dd70014	0.10498062
168	0xbcb0eb40	-0.021596551
169	0x3d4d0615	0.05005463
170	0xbd2f8fb9	-0.042861674
171	0xbd230151	-0.039796177
172	0xbd4b1360	-0.049579024
173	0x3e86dab2	0.26338726
174	0x3d299435	0.041401107
175	0x3e672f4e	0.22576639
176	0xbd367c02	-0.044551857
177	0xbbbe475f	-0.005806848
178	0x3e3df660	0.18551016
179	0x3ea35b9a	0.31905824
180	0x3e5cb466	0.21553192
181	0x3d9882f0	0.07446849
182	0xbc9aea35	-0.018910507
183	0x3dc12f82	0.094328895
184	0x3d6621cc	0.056184575
185	0x3c948056	0.018127602
186	0x3e0816cb	0.13289945
187	0xbc521db8	-0.012824468
188	0x3e115422	0.1419225
189	0xbce2ed6c	-0.027701102
190	0xbe06f776	-0.13180336
191	0x3e0d8575	0.13820441
192	0xbe1011d0	-0.14069295
193	0xbd5f8589	-0.05457071
194	0xbbaa0120	-0.0051881224
195	0x3da15e15	0.07879273
196	0xbc1c053b	-0.009522731
197	0xbd1afeba	-0.037840582
198	0x3a660cfe	0.00087757397
199	0x3c880b9a	0.016607095
200	0x3e0169b7	0.12637983
201	0xbd294846	-0.04132869
202	0xbbce1f1e	-0.0062903306
203	0x3e0d3b82	0.13792232
204	0x3c81e8b2	0.015858028
205	0xbd1abe48	-0.037779123
206	0xbd3de8fa	-0.046364762
207	0xbce28b97	-0.027654452
208	0xbdb4602f	-0.08807408
209	0x3dbc7ca5	0.092034616
210	0x3e24677a	0.16055098
211	0x3dba1d1d	0.09087584
212	0xbc614745	-0.013749902
213	0x3e7c1d90	0.24620652
214	0x3b9a873b	0.0047158278
215	0x3d92d8b4	0.07170239
216	0xbd00f49b	-0.031483274
217	0xbbac4349	-0.0052570445
218	0xbb8f84dc	-0.0043798517
219	0xbcbc45ae	-0.022982445
220	0x3d8a101b	0.06741353
221	0xbd22fef4	-0.039793923
222	0xbda28652	-0.07935776
223	0x3e7ce8e5	0.24698217
224	0x3d14515a	0.036210395
225	0xbd8bec27	-0.06832152
226	0xbc452ade	-0.012034146
227	0x3ea5ab5a	0.32357293
228	0x3d29a28c	0.041414782
229	0x3a0c7ee2	0.0005359483
230	0x3e3cd279	0.18439664
231	0x3e780c9f	0.24223565
232	0xbe1734e4	-0.1476627
233	0xbdac801f	-0.08422875
234	0xbd6f35a4	-0.058400765
235	0x3ebcb7f6	0.368591
236	0x3e1e593b	0.15463726
237	0xbe0e06fe	-0.13869855
238	0xbc611029	-0.013736763
239	0x3dd93624	0.1060603
240	0xbd2b450c	-0.041813895
241	0x3db0e493	0.08637347
242	0x3caac9b7	0.020848138
243	0xbbbc3735	-0.005743886
244	0xbdba6e68	-0.091030896
245	0xbd1bebc2	-0.038066633
246	0x3c0842d5	0.008316715
247	0xbc90a7e8	-0.017658189
248	0xbddb891c	-0.10719511
249	0x3db246a8	0.08704883
250	0x3d83b944	0.06431821
251	0x3d2b85c4	0.041875616
252	0xbc9c3888	-0.019069925
253	0x3dccec48	0.100060046
254	0xbcbc6248	-0.022996083
255	0x3d425363	0.047442805

fc3.bias f4 [2]
0	0xbd261ae1	-0.040552977
1	0x3c9b7894	0.018978395
