checkpoint_actor2.pth (torch_old, 160208 bytes, 10 tensors)

bn.weight f4 [24]
000000 1b f0 5e 3f 04 43 82 3f f4 67 02 3f 60 3b 70 3f
       0.8708512 1.0176702 0.5093987 0.938406
000010 d3 6e 0a 3f 8e 28 a3 3e c5 7d 2c bc 81 43 36 3f
       0.54075354 0.31866878 -0.010528033 0.7119675
000020 27 83 7c 3e 30 e3 74 3f 66 7a d5 3c e2 a9 85 3f
       0.24659406 0.9565916 0.02605934 1.0442469
000030 1f 38 60 3f 20 80 88 3f 23 14 19 3f bb 30 23 3f
       0.87585634 1.0664101 0.5979635 0.6374623
000040 92 db b9 3e 5f e2 88 3f e6 e5 05 3f 6f 41 9c 3f
       0.3630033 1.0694083 0.5230392 1.2207469
000050 16 03 a9 3f 8b 87 91 3f a3 0e ef 3d 9f 10 b3 3f
       1.3204067 1.136949 0.116727136 1.3989447

bn.bias f4 [24]
000000 12 a5 b0 bd 65 12 f5 bc 36 5d a2 bd f7 58 6d be
       -0.08625235 -0.029915998 -0.07927935 -0.23178469
000010 9a 39 88 3c b1 29 8e bd 3f c4 36 bd 10 9b 5a be
       0.016629029 -0.06941546 -0.04462075 -0.21348214
000020 26 8e c3 bb f2 9c 2c 3d 1e 9c dc bd 14 e3 89 be
       -0.005967873 0.042141862 -0.107719645 -0.2693106
000030 b6 e1 d0 3c 0c 8d 9b be e9 7b c7 3d 94 36 2f be
       0.025498252 -0.30381048 0.09740431 -0.17110664
000040 b3 5a c6 3c 87 d9 9e 3d 43 04 be bd 7b ea 82 be
       0.02421317 0.07756334 -0.092781566 -0.2556952
000050 1f ed a5 bd 1c 82 83 be 54 6e 02 be 8d 64 88 be
       -0.08101868 -0.25685203 -0.127374 -0.26639214

bn.running_mean f4 [24]
000000 00 00 00 00 00 00 00 00 00 00 00 00 00 00 00 00
       0.0 0.0 0.0 0.0
000010 00 00 00 00 00 00 00 00 00 00 00 00 00 00 00 00
       0.0 0.0 0.0 0.0
000020 00 00 00 00 00 00 00 00 00 00 00 00 00 00 00 00
       0.0 0.0 0.0 0.0
000030 00 00 00 00 00 00 00 00 00 00 00 00 00 00 00 00
       0.0 0.0 0.0 0.0
000040 00 00 00 00 00 00 00 00 00 00 00 00 00 00 00 00
       0.0 0.0 0.0 0.0
000050 00 00 00 00 00 00 00 00 00 00 00 00 00 00 00 00
       0.0 0.0 0.0 0.0

bn.running_var f4 [24]
000000 00 00 80 3f 00 00 80 3f 00 00 80 3f 00 00 80 3f
       1.0 1.0 1.0 1.0
000010 00 00 80 3f 00 00 80 3f 00 00 80 3f 00 00 80 3f
       1.0 1.0 1.0 1.0
000020 00 00 80 3f 00 00 80 3f 00 00 80 3f 00 00 80 3f
       1.0 1.0 1.0 1.0
000030 00 00 80 3f 00 00 80 3f 00 00 80 3f 00 00 80 3f
       1.0 1.0 1.0 1.0
000040 00 00 80 3f 00 00 80 3f 00 00 80 3f 00 00 80 3f
       1.0 1.0 1.0 1.0
000050 00 00 80 3f 00 00 80 3f 00 00 80 3f 00 00 80 3f
       1.0 1.0 1.0 1.0

fc1.weight f4 [256, 24]
000000 63 bc a5 3d 22 98 96 3e 4c 97 4f 3d 57 31 b1 bd
       0.080925725 0.29412943 0.050681397 -0.08651989
000010 7f 5d 34 be 00 4e 4d 3e 21 ce b5 bd 0f dc 5d bd
       -0.17613791 0.20049286 -0.088772066 -0.054164942
000020 8e a9 d1 3c 17 ea 29 3e 05 10 9e 3d 8a d9 30 be
       0.025593545 0.16593204 0.07717899 -0.17270485
000030 2c c7 75 bc 50 7a 28 3e 2c b7 34 3c eb 41 d4 bd
       -0.0150011 0.16452909 0.01103 -0.10364135
000040 52 de e2 bd 8b 0d 81 3d d0 91 e5 3c 88 7b 61 be
       -0.110775605 0.06301411 0.02802363 -0.2201978
000050 f4 db 5b bd 5d e8 ee 3d 02 16 47 ba b0 9f 75 be
       -0.05367656 0.116654135 -0.0007594527 -0.23986697
000060 92 0c 9d bd 70 d6 3b be 68 1c fa 3b 93 43 54 3d
       -0.07668413 -0.1834352 0.007632781 0.051822256
000070 41 87 3e bc cc 08 81 3d 90 4e 6e b9 90 5b 1f bd
       -0.011628927 0.06300506 -0.00022726716 -0.03890568
000080 5e e7 0e bd a4 a0 c4 bd a1 da 33 bd c9 13 a6 bd
       -0.034888618 -0.09600952 -0.043909673 -0.081092425
000090 10 1d ca bd d9 07 fb bd 4a 3b 9a bd b8 dc b6 bd
       -0.098688245 -0.12257356 -0.0753084 -0.089288175
0000a0 b0 6e dd 3c de d9 f0 bc 96 18 3c 3d 57 d2 d9 3d
       0.027030319 -0.029400762 0.045921884 0.10635822
0000b0 0e 40 8f be c2 35 8a bd 36 26 5b 3d b8 ff d0 3d
       -0.27978557 -0.06748535 0.053503238 0.102050245
0000c0 65 5a 94 3d 02 1e 1f be 6b 7b 79 3d 4c dd 0a 3d
       0.07243804 -0.15538791 0.060908716 0.03390245
0000d0 d0 40 f3 bd a2 e4 8d bd e8 03 ae 3d 59 a6 0a bd
       -0.118775964 -0.06928374 0.08496839 -0.033850048
0000e0 c8 66 c0 bd bc 96 4f be 1f 77 a4 bd 54 96 03 3d
       -0.09394604 -0.20272344 -0.08030533 0.032125786
0000f0 59 84 b3 bd d6 c1 1a be 71 91 29 3c 4b ed f6 3d
       -0.08765478 -0.15113005 0.010349617 0.12056979
000100 fd be cd bd 05 db 15 be c9 f0 bc 3c 62 95 53 3e
       -0.10046194 -0.1463433 0.023064034 0.20662454
000110 1a 6c ce bd 17 c7 19 be d0 0e 16 3d 68 6f 6a 3e
       -0.100792125 -0.15017353 0.03663522 0.2289406
000120 1d c3 8c bc 41 52 6b be fb eb 0b bd 0a 10 18 3d
       -0.017182881 -0.22980596 -0.034160595 0.03712467
000130 10 2d f0 3d 1c d8 a9 bb 4f 14 cc bd af 95 95 3d
       0.11727345 -0.005183233 -0.09964811 0.073039405
000140 b2 82 83 bd a6 ff 96 be 3c 09 7a 3d 6c d1 05 bc
       -0.064214125 -0.2949192 0.061043963 -0.008167606
000150 cc 4d aa bd e5 df dd bd 9c 48 02 3d 4d ce b8 3d
       -0.0831562 -0.1083372 0.031807527 0.09023724
000160 3c 0c 51 3a e9 fa b9 be 12 bf 0d bd ae 0d c7 3c
       0.00079745403 -0.36324242 -0.034606047 0.024298515
000170 41 58 9f be 1a 55 1b be 96 9e 03 3c 04 51 89 3d
       -0.3112202 -0.15169182 0.008033415 0.06704906
000180 ca cc ac bd f4 ae e3 3c b2 de 19 be 38 55 3a be
       -0.08437498 0.027793385 -0.15026358 -0.18196571
000190 2b 31 8a 3e 80 24 9a bb 3e 8a 0c be 1c d8 80 be
       0.26990637 -0.004704058 -0.1372461 -0.25164878
0001a0 ff 8d 37 be f8 5f e5 bd f7 67 04 be ef e6 1a bb
       -0.17925261 -0.11199945 -0.12930284 -0.0023636182
0001b0 8c 52 58 3e cd df bd bc c9 97 00 be 5f bc 16 bd
       0.21125239 -0.023178006 -0.12557901 -0.03680074
0001c0 f8 6c c5 bd 59 bf 99 bd d3 dd 24 be 7c 48 9d 3c
       -0.09639925 -0.075072 -0.16100244 0.019199602
0001d0 46 81 72 3e 12 c0 be bd f0 8c 65 be 8a f2 73 ba
       0.23682126 -0.09313978 -0.22417045 -0.00093058555
0001e0 49 3b 5e bd ca 27 72 be ac 8c 2c 3d f7 a3 fc bd
       -0.054255757 -0.23647991 0.042126343 -0.12335961
0001f0 09 58 fb 3d 77 a7 ef 3b 25 32 f9 3d d2 6a 4d be
       0.12272651 0.0073136645 0.121677674 -0.2006028
000200 9b 5b 24 bc 3b b2 42 be 69 0d 94 bd de 6b a9 bb
       -0.010031606 -0.19013302 -0.0722912 -0.0051703295
000210 41 12 19 3e fc 44 24 3d 53 ee e5 bd d2 8d d5 bb
       0.1494837 0.04010485 -0.11227097 -0.0065171504
000220 88 c1 bb bd 69 50 74 be f9 aa 8c bd 6a c5 36 3e
       -0.091677725 -0.23858799 -0.06868548 0.17848745
000230 2a 9b 14 3e c7 b2 b9 b9 f8 bd df bd 4d db 29 3e
       0.14512315 -0.0003541915 -0.109249055 0.16587563
000240 ed 8b eb 3c 7b 61 5f bd 6e 8b 90 bd 96 e9 56 3e
       0.028753245 -0.054536324 -0.07057844 0.20987543
000250 5f 1a 21 3e 43 c7 a7 bc 32 fb 94 bd eb a6 65 3e
       0.15732716 -0.020480758 -0.07274474 0.22426955
000260 e1 30 55 bd ff 2f db ba c3 3c 51 bd 3a 03 55 3e
       -0.052048568 -0.0016722678 -0.051083338 0.20802012
000270 ca 59 6f 3d 0f 66 b6 3c 6b 6b 6a bd ff 1b 3f 3e
       0.05843524 0.022265462 -0.057231348 0.18663023
000280 b0 d9 19 be c7 07 fc bd f8 5a 17 be 48 e3 cb 3c
       -0.15024447 -0.12306171 -0.14780796 0.02488865
000290 ec fd 45 3d 36 4f 00 3d 95 47 e3 bd ae 0f 2d 3d
       0.048337862 0.03132554 -0.110976376 0.04225128
0002a0 8d fc 82 3e b4 6a 35 be 2b ce 98 bd cd 14 e2 bc
       0.25583306 -0.17716485 -0.074611984 -0.02759781
0002b0 d2 88 a4 3e 6d c5 af be 2f 4b f4 ba 2a 1a 8e bc
       0.32135636 -0.3433031 -0.0018638129 -0.01734646
0002c0 b3 fc 83 3e 25 96 19 be 60 9f 96 3b bf 2b 3d bd
       0.25778732 -0.14998682 0.0045966357 -0.046184298
0002d0 58 4a 3c 3e 3d d3 85 be 05 4e cc bd 79 36 ab bd
       0.18387735 -0.26137725 -0.099758185 -0.08359999
0002e0 a6 0c d4 3e 39 f0 aa be a4 ad 8c 3d 3c 5d f7 3d
       0.414159 -0.333864 0.06869057 0.1207833
0002f0 19 49 a8 3d 2d 15 6b be 21 c1 16 3d 64 35 97 3d
       0.08217067 -0.22957297 0.036805276 0.0738323
000300 38 91 e2 bd fa f7 97 3d 5f dd 48 bd db 33 81 3d
       -0.110628545 0.07420345 -0.04903924 0.06308719
000310 a3 19 86 bd 3e ce 8d bd 98 2f 3b bd e7 c8 1a 3e
       -0.065478586 -0.06924103 -0.045699686 0.151157
000320 93 6f ce bd c6 87 e3 3d 9e 62 87 bc 34 e4 ed bc
       -0.10079875 0.11109881 -0.016526517 -0.02903948
000330 05 a8 b0 bb 34 34 55 bd 65 7f bf bd e1 5a d6 bc
       -0.0053911232 -0.052051738 -0.093504705 -0.026166381
000340 7c 3d fb bd 7b 51 f1 3c 4f b0 80 bd 41 58 cc 3c
       -0.122675866 0.029457798 -0.06283628 0.024944426
000350 2e 59 01 bd d2 f9 cc bd 15 42 1a be 7e 54 de 3c
       -0.03157919 -0.10008587 -0.15064271 0.027139898
000360 27 9b 54 3e c2 7b f9 bd 3f fc 10 3c 3c b2 8d 3d
       0.20762311 -0.12181808 0.008849203 0.06918761
000370 2b cb 2e 3a a3 13 05 3e 38 ea ca 3d 0b cc 2a bd
       0.00066678476 0.12995772 0.09907955 -0.041698497
000380 58 80 77 3e 96 a3 22 be e2 83 c9 3d 00 ca 0c 3d
       0.24170053 -0.15882716 0.09839608 0.03437233
000390 a4 88 82 bb 7d b3 65 3d 32 95 0e 3e 02 4b c2 bc
       -0.003983574 0.056079376 0.13924101 -0.023717407
0003a0 97 0c 14 3e 87 b4 5b be b0 83 36 3e a8 a8 00 bd
       0.14457928 -0.21455584 0.17823672 -0.031410843
0003b0 3c 9f 5a 3d 62 dc d9 3d 1e 10 30 3e 21 a5 3c 3c
       0.053374514 0.10637738 0.17193648 0.011513979
0003c0 87 85 89 bd f3 d2 3f be a5 1c 7e 3c 60 53 95 bd
       -0.067149214 -0.18732814 0.015509759 -0.07291293
0003d0 8b cf 6c be 50 e3 62 3d 59 4b 09 3d 2d ee 00 3d
       -0.23126046 0.055392563 0.033519123 0.031477142
0003e0 02 7a 05 3d 13 a6 2b be 00 85 3c 3d a2 bf 0c bd
       0.03258706 -0.16762571 0.046025276 -0.034362443
0003f0 fe 76 3b be b0 d8 bb 3d 57 e7 bb 3c 63 43 a5 bc
       -0.1830711 0.09172189 0.02293746 -0.020173734

fc1.bias f4 [256]
000000 de 40 6f 3c 42 96 dd bd c3 c8 14 3e 9e 9b 6d 3e
       0.014602868 -0.10819675 0.1452971 0.23203894
000010 9d aa d9 3c 16 df e0 3d 12 c6 c1 bd aa 45 28 be
       0.026570613 0.1098005 -0.09461607 -0.16432825
000020 d0 e0 ce 3b 23 e0 a1 3d 8d 2e e6 bd 28 57 a8 bd
       0.006313421 0.07904079 -0.112393476 -0.08219749
000030 36 b1 bf 3d 5b 23 8d 3c 17 d5 6a 3e 00 b2 80 bd
       0.09359972 0.017228773 0.2293285 -0.06283951
000040 4a 11 af be 23 7d 52 3c d7 4a 12 bd 04 0b bc 3d
       -0.34192878 0.012847218 -0.035715904 0.091817886
000050 00 ae 09 3e 1e be ab 3e 43 ed e1 bd 2e 21 36 be
       0.13445282 0.33543485 -0.11031582 -0.17786095
000060 22 fb 0f 3d af 4d bc bd 6b 83 86 bd 55 e2 35 bd
       0.03515161 -0.091945045 -0.06568035 -0.0444053
000070 90 61 d3 3c 96 ec 0d 3d 5e b6 84 3d 7c f9 ac bd
       0.025803357 0.034649454 0.06480096 -0.08446023
000080 23 ba d1 bd ec 8a 6f 3e 36 1a 61 3e f4 bd b7 3d
       -0.10240581 0.23392838 0.21982655 0.089717776
000090 11 d3 14 be d3 13 6d 3d bf ea c6 bd dd 9c 8c bd
       -0.1453364 0.057880234 -0.09712743 -0.06865857
0000a0 28 9c d4 3d 18 14 bc 3d eb a5 54 be 7f 87 4a 3d
       0.10381347 0.0918352 -0.20766418 0.049445625
0000b0 77 36 b5 3d 4e 00 07 bd a7 6f 6c 3d 1b 16 15 3e
       0.08848279 -0.032959275 0.057723667 0.14559214
0000c0 a3 9e 4f bd ea 04 23 be 80 4d 35 3e ec 3c 52 3e
       -0.050688397 -0.15919843 0.17705345 0.20531052
0000d0 53 69 97 3c b5 8c 0c be 91 30 f4 3d 2b ed 0d bd
       0.01848284 -0.1372555 0.11923326 -0.03465001
0000e0 07 b9 0d 3e f5 fd 2c bd a0 28 a5 bd 9b 2b 5d 3c
       0.13840114 -0.04223438 -0.08064389 0.013499166
0000f0 31 31 61 3c 6f e7 ac 3d 8d 19 0f 3e cd d7 61 be
       0.013744638 0.0844258 0.1397459 -0.22054978
000100 24 c9 26 3d 6c d7 52 be c8 f8 03 3e f0 7a 5a be
       0.040719166 -0.2058999 0.12887871 -0.2133596
000110 5c b7 90 bd 35 75 4f 3d 8f 8c b1 bd 25 c5 28 be
       -0.07066223 0.050648887 -0.086693875 -0.16481455
000120 87 a8 93 bd 8e ff ee bd ba a5 51 be 12 18 6f be
       -0.072098784 -0.11669837 -0.20473376 -0.23349026
000130 ca de fe 3d c7 af 05 3c 68 bc 9a bd 88 8f 95 be
       0.124448374 0.008159584 -0.07555467 -0.29211068
000140 fd cd 30 3e 9a 01 69 bd 02 40 e6 3d bd 9f 1a 3b
       0.17266078 -0.056886293 0.11242677 0.0023593747
000150 ef b5 79 3d ca 2a a2 bb c6 bb 78 3d 8b ca f0 3d
       0.06096452 -0.0049489485 0.06072595 0.11757382
000160 0c 72 77 3d 6e b9 50 3d 63 59 c5 3e bd 26 1e be
       0.060411498 0.05095809 0.3854476 -0.15444465
000170 07 79 86 bb 10 71 b7 3b ca dd 26 bc 82 d2 be 3d
       -0.004103783 0.005598195 -0.010184715 0.09317495
000180 2d e9 a0 be d2 da 27 be e1 e8 12 be f1 72 c8 bd
       -0.314279 -0.16392067 -0.14346649 -0.09787548
000190 e9 a9 5d 3d 20 c6 41 be 6a 98 21 bc 22 68 44 be
       0.054117117 -0.18923235 -0.0098629985 -0.19180349
0001a0 11 a2 20 3d 47 d1 31 3d 71 60 fb 3d 3b 98 10 bd
       0.03921706 0.043412473 0.12274254 -0.03530143
0001b0 22 33 2a 3e 1a 61 de bd 67 f6 90 3c 80 8e 73 3d
       0.16621068 -0.108583644 0.017695619 0.05946207
0001c0 f9 be 13 bc d6 c3 2b be 1d bd 6f 3d 26 02 4f be
       -0.009017699 -0.16773924 0.05852996 -0.20215663
0001d0 2c 7e fd bc c9 dc 84 bc 0a ad 9b be 5b 8e 2e 3e
       -0.030943953 -0.01621856 -0.30405456 0.17046492
0001e0 25 da c1 3b 8c 14 f6 3b 28 bc 18 3e f1 55 12 3e
       0.0059158974 0.0075097736 0.14915526 0.14290597
0001f0 2f 18 a5 be 88 c9 8c be f8 c7 f8 bd 49 51 08 3e
       -0.32245013 -0.27497506 -0.12147516 0.13312258
000200 f0 2f 81 3d 71 29 5d 3e 4a 39 99 bd f5 b0 f3 bd
       0.063079715 0.2159784 -0.0748163 -0.11898986
000210 9f 55 45 bd bd 32 8c bc 47 63 cc 3d 4f c5 ad be
       -0.048177358 -0.017114038 0.09979873 -0.33939597
000220 20 44 24 3e e7 53 f7 bd bb e8 a2 bc 3e ab 2a be
       0.16041613 -0.1207655 -0.019886365 -0.16666886
000230 f1 08 72 3c ea 86 b0 3d 49 34 31 be c5 5d 69 3d
       0.01477264 0.08619483 -0.17305101 0.05697419
000240 b8 0f 82 be ec c5 1b be d1 20 40 bd 82 ea 9f 3c
       -0.25402617 -0.1521222 -0.046906296 0.019521002
000250 37 6e 6e be 6a 98 f1 3d bd 33 68 3c bc 46 47 3d
       -0.23284231 0.11796649 0.014172492 0.048651442
000260 ee bc 5a 3d 75 be 1d 3e 5f a1 0e 3d e1 af 04 bd
       0.053402834 0.15404685 0.034821864 -0.032394294
000270 57 9c a0 3d f4 64 66 3d b3 a4 7d 3d 2f 37 b6 bd
       0.078423195 0.05624862 0.061924648 -0.08897244
000280 ef 9d b2 bd 14 0d 57 3e 58 fc 81 bd 93 36 88 3d
       -0.0872153 0.21001083 -0.06346959 0.06651034
000290 7d 6c 17 bd a2 33 0d bd 35 b6 30 3e bb 7e d0 bd
       -0.036968697 -0.03447307 0.17257006 -0.10180422
0002a0 76 cf 9a 3d ed 56 ea bd 10 fa 89 be ea 7f f3 bd
       0.07559101 -0.11442361 -0.26948595 -0.11889632
0002b0 2c 37 99 bd 8e b9 ba bd f8 b4 37 be b8 f3 91 3e
       -0.07481226 -0.09117423 -0.17940128 0.28506255
0002c0 97 69 b9 bd 2a 54 27 3e 16 2c 26 3e fc fd 2b be
       -0.09053343 0.163407 0.16227755 -0.16796106
0002d0 15 e4 0e be 5d 18 3c be 93 00 44 be a8 8a 06 3e
       -0.13954194 -0.18368669 -0.19140844 0.1313883
0002e0 dd 70 9d be 2d 89 66 3d a2 72 86 3c 4c 6b b1 bc
       -0.3075017 0.056283165 0.016412083 -0.021657608
0002f0 b6 9c 91 3d 14 5e 05 3e 42 b8 29 be 73 47 c4 3c
       0.07109968 0.13024169 -0.16574195 0.02395985
000300 6d e8 5d bd 03 74 71 3c 12 bc 11 bd a9 95 66 3e
       -0.054176737 0.014737132 -0.03557975 0.22518028
000310 aa dd 0e bd aa 26 26 3e 89 e9 ab 3e 27 30 0d be
       -0.034879364 0.16225687 0.3357661 -0.137879
000320 34 63 29 be cf dd 43 be 36 7a ad bd c4 35 c1 bc
       -0.16541749 -0.19127582 -0.084705755 -0.023585208
000330 fe 4d a5 3d c9 c3 08 3e 00 bb 88 3d fa 7b e2 3d
       0.080715165 0.13355936 0.066762924 0.11058803
000340 88 63 0f be 0a 9b d2 3d ea 33 d6 bd 25 a6 34 3e
       -0.14002812 0.102834776 -0.104591206 0.17641504
000350 38 66 12 be bd 6f d3 bc e2 a9 03 3b 05 b1 67 3e
       -0.14296806 -0.025810117 0.0020090272 0.22626121
000360 c6 c7 91 3e 7a bf 28 3e 75 d7 61 3e 1b 38 e3 bd
       0.28472728 0.16479293 0.22054847 -0.11094686
000370 36 71 00 3e 9d 70 72 3c 54 dc e1 3b 9b c8 ff bd
       0.12543187 0.014797357 0.0068927202 -0.12489434
000380 f0 a8 6d 3e d0 61 2a 3e 6e f1 ae 3d ad 87 ab bd
       0.23208976 0.16638875 0.08542143 -0.083754875
000390 88 7a af 3d 65 29 c5 3d 34 b2 08 be a9 f7 9b bc
       0.08568293 0.09627036 -0.13349229 -0.019038992
0003a0 ce 5a f0 3d de 74 3a be dc 2b d9 3d 5d 31 e1 3d
       0.117360696 -0.18208644 0.10604069 0.109957434
0003b0 e5 16 56 3d 2a 7b 33 3e 4b fd ce bc 66 ae a5 bd
       0.052267928 0.17527452 -0.025267264 -0.080899045
0003c0 40 fe e3 bd 6d ad 38 3e f6 84 03 be 7c 30 90 3d
       -0.11132479 0.18034907 -0.1284369 0.07040498
0003d0 58 07 a4 3e 74 1a a3 bd a9 a9 10 3d 77 33 14 be
       0.32036853 -0.0796403 0.03531805 -0.14472757
0003e0 25 f5 5a bd 5d f1 09 3e ea d3 0e be e5 3b 55 bd
       -0.053456444 0.13470979 -0.13948026 -0.052059073
0003f0 07 fb 14 be 11 84 67 be ab 44 e2 3d 8f 0b a6 3c
       -0.14548884 -0.22608973 0.110482536 0.020269183

fc2.weight f4 [128, 256]
000000 89 f7 5f be 03 df 78 be d0 93 42 bd 18 ef 84 be
       -0.21871771 -0.24303822 -0.047504246 -0.25963664
000010 9a 0c ba bc 48 8b 61 3d 03 aa 1d be 9a 30 f0 3e
       -0.022711087 0.05506447 -0.15396886 0.4691208
000020 aa b1 10 be ec 5e 02 3b 96 ec 53 bc 20 74 ae 3c
       -0.14130273 0.0019893004 -0.012934824 0.021295607
000030 df 76 f0 bd 4e 2a 10 3e 2c 4b 94 bc df 61 30 bd
       -0.11741423 0.14078638 -0.018102251 -0.043062087
000040 8e ef 1c 3e 78 5f 9d 3d a4 d4 07 3d 9d de 0d 3e
       0.15325758 0.07684225 0.033161774 0.13854451
000050 78 84 73 bd 24 75 1b be 37 e6 e5 3d f8 be 39 3d
       -0.059452504 -0.15181404 0.112255506 0.045348138
000060 ba a7 cb bb 4b 91 ff bd 51 a6 5e bc bb 3d 41 3c
       -0.006215063 -0.12478884 -0.013589458 0.011794503
000070 81 cb bc 3d 1c 1a 53 bd c0 21 02 3f 07 da 05 be
       0.09218503 -0.05153857 0.5083275 -0.13071452
000080 70 7d 35 be 8f bf 04 3d 7c a3 a8 bd 35 18 9c 3d
       -0.17723632 0.032409247 -0.08234307 0.076218046
000090 17 80 88 3c 9c 7d fa 3c b7 57 2c 3d ec 7f ee 3d
       0.01666264 0.030577473 0.04207584 0.11645493
0000a0 6a 68 95 3d 44 5e e1 3c a5 5b 2d bd c6 9d 39 3d
       0.07295306 0.02751077 -0.042323727 0.04531648
0000b0 21 f8 90 3d a9 86 02 be 4d 94 95 3e f8 d4 ed 3c
       0.07078577 -0.12746681 0.29214707 0.029032215
0000c0 e8 e0 d8 bd 29 7a 8d be d5 b0 ce 3d d9 ca eb bd
       -0.105897725 -0.27632263 0.10092322 -0.115132995
0000d0 a2 03 1f 3d 1a 9c 52 bd b5 cf 76 be 9c bd 31 3d
       0.038821824 -0.0514184 -0.24102671 0.043393716
0000e0 06 97 b8 bd 5d 7c 6d 3c ea e2 91 bd 3b 72 47 3e
       -0.090131804 0.014494983 -0.071233585 0.19477169
0000f0 38 ee 17 bd e4 1f 33 bd 69 79 16 bd 88 4c 93 be
       -0.037092417 -0.043731585 -0.03673688 -0.28769326
000100 9d c4 74 3d 59 2f b3 3c f5 03 9b bd 01 b1 26 3d
       0.059757818 0.021873163 -0.07569114 0.040696148
000110 4f b1 3c be 01 02 35 be ed 97 3e 3d 80 2f 4e 3e
       -0.18427013 -0.17676546 0.046531606 0.20135307
000120 eb d3 c5 3e b1 31 95 3c b1 d0 49 bd 4b 1a 8b bc
       0.38638243 0.018212171 -0.04927129 -0.01698031
000130 ff 50 d5 bd 5c fe 45 3d 52 0f 0f bd 3d a1 89 bc
       -0.104158394 0.04833828 -0.03492672 -0.016800517
000140 38 9b 7d bd 12 94 9a 3d 45 d6 1d bd bf ac 46 be
       -0.061915606 0.075477734 -0.03853442 -0.19401835
000150 f1 46 9a 3d 54 4f e8 3d 90 2c 18 be e6 fa 85 3d
       0.07533062 0.11343256 -0.14860749 0.06541996
000160 f9 3e bf 3d 0e 56 06 3d 75 3b 12 be 17 b6 30 3e
       0.09338183 0.032796912 -0.14280494 0.17256962
000170 12 7f 7a 3d f6 53 2a ba 3f da b7 3c 74 54 85 bd
       0.06115634 -0.00064974965 0.022442935 -0.06510249
000180 21 c5 0e 3e 3e 5f 56 3e 6f a1 24 be 70 26 0e 3c
       0.13942386 0.2093477 -0.16077207 0.008676156
000190 8f 7b 4e be c9 33 89 bd ea 61 77 bd c7 1b 74 3d
       -0.20164321 -0.0669933 -0.060396113 0.059596803
0001a0 9e bc 6f bd 67 16 83 3d 48 ca be bd f1 69 ec bc
       -0.05852949 0.06400757 -0.09315926 -0.02885911
0001b0 69 3a 11 bd 61 1f 10 bd 53 17 c3 3d 6e 6e d7 3d
       -0.035456095 -0.035186175 0.09525933 0.1051911
0001c0 8b 63 14 3e c1 1f b7 bd 7e c0 6c bc c6 fc ac bd
       0.14491098 -0.089416035 -0.014450191 -0.0844665
0001d0 c0 62 3c bd 8d 28 b1 bd 60 19 a9 bb 5e 83 ef bd
       -0.045992613 -0.086503126 -0.0051604956 -0.11694978
0001e0 2a 6d 46 3c 9c ea 83 3d ba 1d 15 3e 52 97 65 bd
       0.012110988 0.064412326 0.14562121 -0.056052513
0001f0 ca 63 d4 bd f6 c8 34 be 27 b6 d9 3d 4a f3 4b 3d
       -0.10370596 -0.17654786 0.10630446 0.049792565
000200 f4 8c 38 be b5 81 ee bd a4 8f 86 3b 07 e1 5f bd
       -0.1802252 -0.116458334 0.0041064788 -0.054657962
000210 97 0d 7f be be 66 c5 bd 04 c6 0c 3e 2c 14 37 3d
       -0.24907528 -0.09638737 0.13747412 0.04469697
000220 9c 37 b7 ba e3 fe 88 3d cf 06 fe bb b2 99 80 bd
       -0.0013978365 0.06689241 -0.0077522765 -0.06279315
000230 88 57 23 bd d4 be a0 3d 47 04 03 3e fd a8 0c bd
       -0.0398784 0.078488976 0.127946 -0.034340847
000240 71 c5 d4 3d 99 d4 54 3d 91 2f b7 bd 31 25 bb 3c
       0.103892215 0.05196056 -0.089446194 0.022844883
000250 a8 66 41 3d f6 c4 28 bd 37 b2 4d bc f1 1b 13 3d
       0.04721704 -0.04120346 -0.012554697 0.03591532
000260 00 26 ec bb 52 9a 74 bc 23 6f 22 3d 6b f5 a3 be
       -0.0072066784 -0.014929371 0.03965677 -0.32023177
000270 2e 1a 01 3e 3a 5f 0c be a2 47 17 be 02 91 ea 3c
       0.12607643 -0.13708201 -0.1477342 0.028633598
000280 b5 9a 14 be 66 27 89 3e 16 01 80 3c cd 9d e7 bb
       -0.14512141 0.2678787 0.015625518 -0.007068372
000290 a0 94 53 3d d2 4c 89 3e ec c3 c6 3c 39 ca 93 bc
       0.05165541 0.26816422 0.024263345 -0.018040763
0002a0 42 54 96 be 8a aa 27 3e 24 b9 2b 3d 6d 02 2e 3e
       -0.2936116 0.16373649 0.04192461 0.16993113
0002b0 b0 69 6d be 57 4e 85 3d 19 09 d6 3d e7 68 63 bd
       -0.23184848 0.06509083 0.10450954 -0.055519965
0002c0 c9 69 b6 be 9a 0c 29 bc b8 5e 1c be ce 78 a9 3d
       -0.35627583 -0.010317946 -0.15270507 0.08274995
0002d0 a0 1b fc bd db 55 64 bd 3a 80 0d bd b2 68 fd 3c
       -0.123099566 -0.05574594 -0.034546115 0.030933712
0002e0 8e 77 84 bc dd 0e 6b bd 57 84 98 3d bf c1 cf be
       -0.01617029 -0.05738722 0.07447117 -0.40577504
0002f0 69 bc 2c 3d 0c e3 8a be 41 97 bc 3c 47 07 51 bc
       0.04217187 -0.27126348 0.023021342 -0.012758083
000300 c2 97 6e 3d 7d 6b 78 be da c4 0c 3e 1f ac 06 be
       0.058250196 -0.24259754 0.13746968 -0.13151596
000310 39 10 60 3d 96 5e 69 be fc 71 22 3d 08 7b c8 3c
       0.05470297 -0.22789988 0.039659485 0.024472728
000320 d5 c5 b9 3d 21 30 8d 3d 7d 38 17 be 80 83 41 be
       0.090709366 0.068939455 -0.14767642 -0.1889782
000330 c9 0b 4c 3b 58 a1 ba bc bc 5b ac 3d 3a 4a c8 3d
       0.0031134954 -0.022782013 0.084159344 0.097797826
000340 7a 4c aa 3e 42 96 7f 3c 69 c1 28 3e 1e 4b a6 bd
       0.33261472 0.015599789 0.1648003 -0.08119796
000350 af 99 06 bd 8c b0 18 bd 16 bc cb bc 4b 79 b4 bd
       -0.032861408 -0.037277743 -0.02486996 -0.08812197
000360 dc ae 9f bd a6 35 10 be 4d d3 66 3d 74 af 88 bd
       -0.07797024 -0.14082965 0.056353856 -0.0667409
000370 54 80 7d bc 84 56 98 bc b9 e9 03 bd 3d aa 13 3e
       -0.01547249 -0.018595941 -0.032205317 0.1442041
000380 f2 12 8d 3d 54 46 d3 bd dc dd 33 bd 59 6c 7f be
       0.06888379 -0.103161484 -0.043912753 -0.24943675
000390 d1 5b f0 bd 35 16 74 3d 0b f7 08 be d8 03 91 bd
       -0.117362626 0.05959149 -0.1337549 -0.07080811
0003a0 d4 a9 e1 bd 56 e8 18 3e dd a5 4a bd d5 e1 e8 bd
       -0.1101872 0.14932379 -0.049474586 -0.11371199
0003b0 1e 98 51 be 98 3e 83 3d 13 5e 56 bc 3f b3 e4 3d
       -0.20468184 0.06408423 -0.0130839525 0.11167001
0003c0 ad 7c 52 3e 91 5c 06 3d 54 ae 10 bc 5f 2e cd 3d
       0.20555373 0.032803122 -0.008830626 0.1001861
0003d0 79 a3 28 bb 6b 4a af 3d 76 58 d3 3c 0e b0 4c 3e
       -0.0025732203 0.08559116 0.025799017 0.19989035
0003e0 10 b3 50 bc 34 f0 47 3d c1 e1 a1 3d fa 58 00 3e
       -0.012738004 0.04881306 0.07904387 0.12533942
0003f0 94 3a 25 3d 6a 9f c3 bc 3f b6 74 be 97 d2 1a be
       0.040339068 -0.023879725 -0.23897646 -0.15119396

fc2.bias f4 [128]
000000 3f 44 6a bd 84 60 0e 3d 31 b4 29 3c 12 cf 6d 3d
       -0.05719399 0.034760013 0.010357902 0.058058806
000010 63 d8 82 bd 80 14 9a 3d 1d 30 3b 3d 7b 21 b1 3d
       -0.06388929 0.07523441 0.04570018 0.08648964
000020 84 8d 92 3d cd ed d6 bd 2a 2c 4a bd 9a 01 3f bd
       0.07155898 -0.10494576 -0.049358524 -0.046632387
000030 7d de 88 bd 43 e4 82 bc 4d 7b 7e 3d b6 e5 b0 bd
       -0.06683061 -0.015977984 0.062129308 -0.08637564
000040 aa 4b 81 bd c5 dd 26 bd 28 1d 36 bd b3 98 08 3e
       -0.0631326 -0.04073884 -0.0444614 0.133395
000050 38 32 c0 bd b9 e2 f1 bd 89 58 05 be 41 53 7d bd
       -0.093845785 -0.11810822 -0.13022055 -0.061846975
000060 f3 b6 36 bd 95 8e 37 bd db 5a 83 3d 1c 13 00 3d
       -0.044608068 -0.04481371 0.06413814 0.031268224
000070 91 83 a2 bd 14 2e b7 3c 03 34 3c 3c 74 2e c8 bd
       -0.079352506 0.022360839 0.01148701 -0.09774485
000080 11 18 cd bd 2c 8a 1a bd ac 26 11 be bc a7 d7 bc
       -0.10014356 -0.037729427 -0.14174908 -0.0263251
000090 2b 8f 1c 3e 00 53 ff bd 0c c4 af 3b 4f 7c 79 bd
       0.15288989 -0.12467003 0.005363947 -0.060909566
0000a0 b4 1a 2a bd 4b 70 96 bc 2a e8 c0 3d ef 13 f5 bc
       -0.041529372 -0.018364092 0.09419282 -0.029916732
0000b0 cc b8 fc bc ce c2 03 be 35 ce 81 3c 63 e0 bc bd
       -0.030849837 -0.12867281 0.015845397 -0.09222486
0000c0 a0 64 00 3c 50 15 0c bd 34 f8 76 3c 65 f2 69 bd
       0.007836491 -0.034200013 0.015073825 -0.05711593
0000d0 35 38 d8 bd 61 8f f5 3d db 8c 79 3d e9 0e 3b 3c
       -0.10557596 0.11990238 0.060925346 0.011417129
0000e0 41 f3 63 bd 58 28 af bd 3a 2e 8f bd 8f 2d 9c 3b
       -0.055651907 -0.08552617 -0.06991239 0.004766173
0000f0 90 dc d7 bc f4 d1 8e 3d 64 e9 39 3d d5 ef 8a bd
       -0.02635029 0.06973639 0.045388594 -0.067840256
000100 c5 50 68 bb eb b1 2c bd 50 09 6a bd a0 81 29 bd
       -0.0035448533 -0.042161863 -0.057137787 -0.041383386
000110 de 20 32 3d c6 27 02 be bf f6 fd 3d cf 41 ee bd
       0.043488376 -0.12710485 0.12400579 -0.11633646
000120 70 e9 bf bd 5c 69 12 bd 98 f6 9c 3c 74 05 35 3e
       -0.093706965 -0.03574501 0.019160554 0.17677861
000130 9f b3 6a 3d 99 19 20 3c a2 09 78 bb a9 15 02 3a
       0.057300206 0.009771728 -0.0037847538 0.0004962334
000140 f9 9f bb bb 9c 01 f8 bc ab 60 e6 bb 48 bb bc bc
       -0.0057258573 -0.030274205 -0.0070305667 -0.023038521
000150 89 bb 4b 3d eb f7 04 3e cd 3f b4 bc 27 79 b0 bd
       0.049739394 0.12985198 -0.022003079 -0.08616858
000160 a8 13 71 bc c8 ae 1c 3d 4b b3 b9 ba 0f 2f 20 be
       -0.014714159 0.038252622 -0.0014167813 -0.15642951
000170 2a ef 86 bb 73 d6 1f bc 1c 75 08 bd c0 71 86 bd
       -0.004117866 -0.0097557185 -0.03331481 -0.06564665
000180 e9 15 25 be df a1 80 bc 2b 21 13 3b 7c 10 42 bd
       -0.1612164 -0.015702186 0.002245019 -0.047379002
000190 07 1d d5 bd 11 60 ee 3c 03 55 93 bc ac 27 1a bd
       -0.10405927 0.029098542 -0.017984873 -0.03763549
0001a0 d1 62 e2 bd 71 e3 83 3d d7 83 74 bd 78 72 43 bd
       -0.11054004 0.064398654 -0.059696045 -0.047716588
0001b0 7b 47 e8 bb be 8b 9a bc 5b 99 f7 bc 7a 7d 7e 3c
       -0.0070885993 -0.018865462 -0.030224493 0.015532846
0001c0 38 9b 4d bd 16 9d ac 3d 41 00 85 bd f0 da 02 3e
       -0.050196856 0.08428399 -0.06494189 0.1277883
0001d0 de 9a 1a bd c3 e7 25 3d d4 33 e2 3c 1a d2 0a 3d
       -0.03774535 0.04050423 0.027612604 0.033891775
0001e0 ad 5f eb bc cb 72 14 bd c7 82 9b bd 42 0d 2e 3d
       -0.028732145 -0.036242288 -0.07593303 0.042493112
0001f0 ac 6a 60 bd b3 22 99 bc 74 0c 81 bd bc e1 0c 3d
       -0.05478923 -0.018693304 -0.06301203 0.034394965

fc3.weight f4 [2, 128]
000000 a1 39 50 3e 46 12 ff 3d b0 0a 18 3c d6 d5 b2 be
       0.20334484 0.12454657 0.009279892 -0.3492877
000010 9e bb fe 3e 6f 05 d8 3e 98 9d 1a 3f ed fb d6 3d
       0.49752516 0.42191646 0.6039672 0.1049727
000020 4a cd 96 3e 9d d2 c1 be 08 71 ee 3e 41 ce 1e 3e
       0.29453498 -0.37855998 0.4657061 0.15508367
000030 d0 11 35 be b0 15 16 be e1 2a ff bd ee 63 6b 3b
       -0.17682576 -0.1465671 -0.124593504 0.0035917717
000040 87 8d 42 3d 47 ad 2c 3e c8 91 ee 3d b6 f6 a2 be
       0.047498252 0.16862975 0.11648899 -0.3182885
000050 13 15 19 bf 82 fe 01 3f bd 8e 68 3d 5f 31 ec bb
       -0.5979778 0.50778973 0.05677675 -0.007208034
000060 44 b3 a0 3d 81 ed 5b 3f 0d 2b ab 3e f8 19 83 3e
       0.07846692 0.8590928 0.33431283 0.2560575
000070 48 67 22 3e fd 4d ba bc c6 1c 03 be 9d 16 ae 3e
       0.15859711 -0.022742266 -0.12803945 0.34001628
000080 73 25 42 3c 7a 36 9d 3e b9 b1 4a 3e 15 d0 c2 3e
       0.011849749 0.30705625 0.19794358 0.3804938
000090 0a 75 1a be 2b 2f 6d bd 27 21 76 be ac 71 4f 3e
       -0.1508371 -0.05790631 -0.24036084 0.20258206
0000a0 8a 90 90 3d ee 08 05 bd d6 68 30 3f d2 d0 21 3e
       0.07058819 -0.03247922 0.68909967 0.15802315
0000b0 f8 fd 4d 3d af 25 c3 bc 08 14 2f 3d 9b 93 3c bf
       0.05029103 -0.02382168 0.042743713 -0.7366273
0000c0 05 f7 cd 3d 6b 36 37 3d 19 b8 ba 3d 3e 3d 4c 3e
       0.10056881 0.04472963 0.09117145 0.19945237
0000d0 69 99 fa 3e cc f6 b6 3e 68 d3 94 be bd 9d 09 be
       0.48945168 0.35735166 -0.2906754 -0.13439079
0000e0 89 bb b1 3e af 57 f3 3b 6f 72 8a 3e f9 67 f9 3d
       0.3471339 0.007426224 0.2704043 0.12178034
0000f0 ec be 56 bc 75 cb 13 3e eb 5c e7 3e 04 f6 06 3e
       -0.013107043 0.14433081 0.45188078 0.13179785
000100 81 b9 1d 3b fc 26 8d 3e 5d f1 4e 3d 99 48 d5 bd
       0.0024066868 0.27568805 0.05052315 -0.104142375
000110 91 28 cc bc 1a c5 00 3e 4e 84 43 3c 74 b5 93 bc
       -0.024921687 0.12575188 0.011933399 -0.01803086
000120 ee 4c fe 3d c8 29 6d 3e a9 55 a1 be 78 86 dd bd
       0.12417017 0.2316047 -0.31510666 -0.108166635
000130 42 dd 69 3e 8e e5 21 3b ef 3c 43 be 06 43 ba bc
       0.2283831 0.0024703476 -0.19066213 -0.022737037
000140 08 72 7b 3d 39 99 8f 3e 14 ed 39 be fb bf ed 3b
       0.061388046 0.28046587 -0.18156844 0.007255552
000150 7b 08 8c be 43 7c a5 bd 48 c7 ab 3e 87 3e 47 be
       -0.2735022 -0.08080342 0.33550477 -0.19457446
000160 fc 7a b2 3e ff b6 85 3f 0f 8e 00 3b 70 fd 29 3f
       0.34859455 1.0446471 0.0019615924 0.6640234
000170 41 d3 e3 bb 0f bf 59 be f0 07 2b 3d 12 96 78 be
       -0.0069526737 -0.2126429 0.041755617 -0.24275997
000180 0b 2a 9e be 1e d0 35 3e 3e 3e 8f bc 70 e4 16 3e
       -0.3089145 0.17755172 -0.017485734 0.1473558
000190 4d 4d 92 3b 87 63 de bc 27 8e 66 3d 87 ad 46 be
       0.0044647814 -0.027147068 0.05628791 -0.19402133
0001a0 94 65 3c be c5 df 7e 3e 52 01 3e 3e 41 0f 86 3d
       -0.18398124 0.24890049 0.18555191 0.06545878
0001b0 95 0e 7c 3d ac 55 9b 3c 43 c8 68 3b 7e c1 39 3d
       0.061537344 0.01896175 0.0035519756 0.045350544
0001c0 fb 94 86 3e 0f 58 23 3e 59 b6 44 3d 5d 8b db bd
       0.26285538 0.1595156 0.048025463 -0.10719941
0001d0 25 b1 6a be 5d a2 7f 3e 80 c3 b7 3d 1e 45 a7 be
       -0.22919138 0.2496428 0.089728355 -0.3266992
0001e0 94 bb 99 3e 13 b5 c8 3c 6a 3e 4f bd 66 ef 1b 3e
       0.30025923 0.024500405 -0.050596632 0.15228042
0001f0 74 6d 1c 3e 84 12 10 3d 2d 44 7e 3e 30 2a e6 3e
       0.15276128 0.035173908 0.24830694 0.44954062
000200 13 5e 08 be 32 04 ee be 3e 9c a5 3d f3 ba 9b 3d
       -0.13317136 -0.46487576 0.080864415 0.07604017
000210 2f e4 fc bd c9 f5 9d bd b1 e4 27 bd d9 f5 5b be
       -0.1234821 -0.077128954 -0.04098958 -0.21480502
000220 c5 00 99 3e c9 ac 8c be 43 c4 45 be f4 11 60 3e
       0.298834 -0.27475575 -0.19313149 0.21881849
000230 c0 19 ce be 88 f7 26 bf 45 b7 9d bc 7d ca a9 3d
       -0.4025402 -0.6522145 -0.019252429 0.08290575
000240 c6 94 59 be 47 67 60 3d f6 99 a5 be 0f 09 21 be
       -0.21248159 0.054785993 -0.32344025 -0.15726112
000250 f4 41 e0 be 0b c3 58 be ae 38 01 be 51 4b 21 3e
       -0.43800318 -0.21168153 -0.12619278 0.15751387
000260 f2 1c 3e 3d 5d a9 5e 3d 2b c8 12 bf 6c 47 28 be
       0.046414323 0.054360736 -0.5733668 -0.16433495
000270 e2 85 ae 3e cb 55 6c 3e d1 d5 c7 be 6b 1d 0b 3e
       0.3408652 0.23079602 -0.39030316 0.13585441
000280 1f 7b ec bd 51 f1 4d be b8 9b 0f be fd 60 2e bf
       -0.11546921 -0.20111586 -0.14024246 -0.6811674
000290 2f f4 8c 3e 8a 58 27 be b4 e5 79 be 77 66 8f be
       0.27530047 -0.16342369 -0.24404031 -0.28007862
0002a0 21 a8 a4 be f9 5e fd be 01 f9 77 3e 98 d6 c1 3c
       -0.32159522 -0.4948652 0.24216081 0.023661897
0002b0 b7 6b 73 bd 9b 1e 0e 3e d2 b8 92 3d b0 9c da 3d
       -0.059428897 0.13878863 0.07164158 0.10674417
0002c0 89 26 32 3d 5a 79 64 be c0 51 14 bf c7 c7 45 be
       0.04349378 -0.22311917 -0.5793724 -0.1931449
0002d0 b8 30 f2 3e c5 3e c1 3e fe e0 16 bd 50 54 2a 3f
       0.47302794 0.37743202 -0.036835663 0.665349
0002e0 60 07 50 3d b8 52 be 3d cc 62 50 be 4b 39 aa 3d
       0.050788283 0.09293121 -0.20350188 0.08311709
0002f0 89 76 35 3e bb 11 b7 3e 0d 95 50 be d4 32 01 3e
       0.17720999 0.35755715 -0.20369358 0.12617046
000300 ae f0 18 3e 53 1a b1 be 92 06 2b 3d 8f 07 c2 be
       0.14935562 -0.34590396 0.041754313 -0.37896392
000310 2f e7 24 3e 5e 89 83 be 99 ac 9d 3e e5 94 e3 be
       0.16103815 -0.2569074 0.30795744 -0.44449535
000320 5b 32 18 3f a0 bc 8a bd cd f3 9b bb 7f 3d 56 3e
       0.59451836 -0.067742586 -0.004759288 0.20921896
000330 8e 2c a5 bd ff 1e e4 3d 02 48 35 be 1f fa 92 be
       -0.08065139 0.111387245 -0.1770325 -0.28706452
000340 b9 9c 58 be 82 91 1c bf d2 13 25 3e 6b 0f 69 3c
       -0.21153535 -0.6115953 0.16120842 0.014224867
000350 22 a8 a0 be d6 85 53 3e f3 b5 17 3e 00 56 0d bf
       -0.31378275 0.20656523 0.14815502 -0.5520935
000360 45 3f 9b 3e 95 58 05 3f 2b 13 5e 3e f4 67 1e be
       0.30321708 0.5208829 0.21687 -0.15469342
000370 3a 5d 99 be c0 dd 18 be 1b 5a 36 3d 52 eb 6b be
       -0.2995394 -0.14928341 0.044519525 -0.23038986
000380 df 63 14 bf 17 58 92 3e 04 99 01 bf 62 33 22 bf
       -0.5796489 0.28582832 -0.5062411 -0.63359654
000390 77 12 1d bd 35 c0 88 be 42 e4 fa be ab 3c c5 3e
       -0.038347688 -0.26709142 -0.49002272 0.38522848
0003a0 c1 a7 d5 3e 61 39 e9 be cb cd 1e bf 0c 8a dd be
       0.4172955 -0.4555159 -0.62032765 -0.43269384
0003b0 5c 97 e4 3c 55 de 11 bd 05 7b 66 3d ea 89 75 3e
       0.027904205 -0.035612423 0.056269664 0.23978391
0003c0 ea 8f 05 3e 7f 78 d9 be 0f 03 62 3e 55 8d 61 3e
       0.1304318 -0.42474744 0.2207148 0.2202657
0003d0 83 9d 02 be e9 87 c3 3e 0a c8 85 be 6c c0 00 bf
       -0.12755398 0.3818963 -0.2612918 -0.5029361
0003e0 0e 8f 0e bd 94 85 45 3e 7f 6e 04 be 35 25 dd be
       -0.034804396 0.19289237 -0.12932776 -0.4319245
0003f0 a8 e5 b5 be d7 fc e0 bd 82 71 ff 3d ca 1a 48 bf
       -0.35526776 -0.109857254 0.12472822 -0.78165877

fc3.bias f4 [2]
000000 f9 82 a2 3d 49 6c 87 3d
       0.07935137 0.06612451
