checkpoint_actor1.pth (torch_old, 160208 bytes, 10 tensors)

bn.weight f4 [24]
0.7708206 1.2647572 0.35997146 1.294314 1.2503364 0.750333 0.26453242 1.313874
0.6567608 1.5544407 0.53568333 0.52489114 1.4846789 1.1909822 0.16157605 0.5772353
0.667401 1.453439 0.6576118 1.2079829 0.7557939 1.284724 0.46708548 0.6599453
00000000: 8054 453f 90e3 a13f 2e4e b83e 15ac a53f
00000010: 060b a03f d315 403f cb70 873e 062d a83f
00000020: 7a21 283f eaf7 c63f 8b22 093f 445f 063f
00000030: f509 be3f 1b72 983f 3174 253e b1c5 133f
00000040: cbda 2a3f 4a0a ba3f 3f59 283f 2f9f 9a3f
00000050: b67b 413f d671 a43f d425 ef3e 2df2 283f

bn.bias f4 [24]
-0.15381992 0.021759737 -0.0076117623 -0.19399606 -0.04356882 -0.08481208 -0.044273797 -0.09128585
-0.11166198 0.106181175 -0.0937498 0.0054307566 0.13277474 -0.2683188 -0.076527454 -0.07747788
-0.048522636 0.027113186 -0.19098456 -0.009394611 0.062146176 -0.30982774 -0.21896192 0.05923215
00000000: f882 1dbe 7a41 b23c 176c f9bb e7a6 46be
00000010: 3875 32bd f5b1 adbd 7158 35bd 13f4 babd
00000020: 09af e4bd 8475 d93d e5ff bfbd 7df4 b13b
00000030: 1af6 073e 1561 89be 6dba 9cbd b9ac 9ebd
00000040: acbf 46bd 791c de3c 7591 43be dbeb 19bc
00000050: fd8c 7e3d bea1 9ebe 8e37 60be 699d 723d

bn.running_mean f4 [24]
0.0 0.0 0.0 0.0 0.0 0.0 0.0 0.0
0.0 0.0 0.0 0.0 0.0 0.0 0.0 0.0
0.0 0.0 0.0 0.0 0.0 0.0 0.0 0.0
00000000: 0000 0000 0000 0000 0000 0000 0000 0000
00000010: 0000 0000 0000 0000 0000 0000 0000 0000
00000020: 0000 0000 0000 0000 0000 0000 0000 0000
00000030: 0000 0000 0000 0000 0000 0000 0000 0000
00000040: 0000 0000 0000 0000 0000 0000 0000 0000
00000050: 0000 0000 0000 0000 0000 0000 0000 0000

bn.running_var f4 [24]
1.0 1.0 1.0 1.0 1.0 1.0 1.0 1.0
1.0 1.0 1.0 1.0 1.0 1.0 1.0 1.0
1.0 1.0 1.0 1.0 1.0 1.0 1.0 1.0
00000000: 0000 803f 0000 803f 0000 803f 0000 803f
00000010: 0000 803f 0000 803f 0000 803f 0000 803f
00000020: 0000 803f 0000 803f 0000 803f 0000 803f
00000030: 0000 803f 0000 803f 0000 803f 0000 803f
00000040: 0000 803f 0000 803f 0000 803f 0000 803f
00000050: 0000 803f 0000 803f 0000 803f 0000 803f

fc1.weight f4 [256, 24]
-0.12007205 -0.015237404 -0.02409927 -0.20570679 -0.10903206 -0.11221704 -0.046193797 -0.12367685
-0.20352049 -0.009310552 0.1210137 -0.066743396 -0.042295933 -0.1293199 0.05475582 -0.052519962
-0.21806136 -0.11165053 0.026983073 0.009829998 0.09756204 -0.24600723 0.01616401 -0.015151647
0.09064281 0.14762945 -0.078691915 0.13530588 -0.1702086 -0.00684889 0.0096173305 0.20515032
0.078299694 0.28688142 0.00341297 0.04816886 -0.10269922 0.04923101 0.07454267 0.07155986
-0.00032109648 0.13535412 0.056814507 -0.067711934 -0.18252312 0.1461254 0.07437718 -0.1807261
0.06014771 0.31948227 -0.020095767 -0.19276218 0.038101178 -0.08434944 0.04278596 -0.09685708
0.019555306 0.19601963 0.036788486 -0.21051067 0.094072394 -0.014156676 0.03487181 -0.20341426
0.006966808 0.1918686 0.029028075 -0.432034 0.15572152 -0.062076207 0.02978046 -0.4103533
-0.049811605 -0.16784006 -0.0016320331 -0.025120243 0.015986731 -0.19253342 0.08907333 -0.034446593
0.0832389 -0.13651936 -0.1007814 0.03975211 0.09783592 -0.103120476 -0.10318685 -0.013269522
-0.051068153 -0.041680604 0.028673427 0.33542177 0.097653426 -0.06003282 -0.014874129 0.21971218
0.18074954 0.0025291755 -0.15327376 0.006257729 0.06337918 0.00960774 -0.09312114 0.09508275
0.102749184 0.11823779 -0.07664368 -0.114064254 -0.057134096 0.17020535 -0.04045217 -0.093493514
0.09813666 0.105165005 0.07570737 -0.011831662 -0.12653688 0.21486503 0.107342415 0.012323615
-0.010451198 -0.18718258 0.07523663 -0.1465715 0.23214301 -0.001146701 0.05424309 -0.07194071
0.032814536 -0.16631079 0.06592601 0.063168 0.2659382 -0.018670786 -0.012697855 0.0878127
0.04420245 -0.22873569 0.036481936 -0.0048218044 0.35231197 0.00683629 -0.005142577 0.023314139
0.0022045767 0.087353386 -0.112304375 0.15778068 -0.09054394 0.085748956 -0.16793367 0.18922418
0.005347341 0.053455487 0.034656037 -0.013923768 -0.16432047 0.020317962 0.012309461 -0.0061229696
-0.091431215 -0.019413829 0.071507804 0.017405424 -0.24019277 0.0031159017 0.082843445 0.031115284
-0.082729094 0.11840442 -0.039102636 0.053426985 0.13923068 -0.118244454 -0.04327268 0.068313226
-0.0955693 0.16044341 0.054126315 0.2265113 0.0410163 -0.088311635 -0.011748898 0.14522716
-0.11890323 0.14599283 -0.1804475 0.25596458 0.08447662 -0.123962335 -0.095492244 0.14974965
-0.008058348 0.06261816 0.0026886007 -0.15063632 -0.16948763 -0.040139433 0.09497625 -0.13565175
-0.027755955 0.049562417 0.0984718 -0.14600188 0.09093112 0.04407256 -0.012753176 -0.20610328
0.03758644 -0.015507637 0.10414919 -0.34702992 0.19265202 0.048586477 0.05306279 -0.2931094
0.1947832 0.05084589 0.0966337 -0.27037567 0.1308112 -0.06963937 0.071655765 -0.18694557
0.13698538 0.0028240439 -0.016693957 -0.2120074 0.10675633 -0.028599098 -0.04714739 -0.24231732
0.08626488 -0.02991297 0.03744826 -0.26089007 -0.08782501 -0.12387097 -0.06330229 -0.24072826
0.0262261 -0.06277807 0.1067916 0.057208188 0.0066344584 0.088129915 0.045921776 0.004963286
0.06732561 -0.097886026 -0.043000005 0.08445616 -0.07279967 0.051419415 0.017626565 -0.03062473
00000000: 56e8 f5bd 4ea6 79bc d56b c5bc cda4 52be
00000010: 334c dfbd 0cd2 e5bd b535 3dbd 4a4a fdbd
00000020: ad67 50be 498b 18bc 08d6 f73d c3b0 88bd
00000030: 803e 2dbd 706c 04be a447 603d 2c1f 57bd
00000040: 7a4b 5fbe 08a9 e4bd 9b0b dd3c 000e 213c
00000050: 9bce c73d 52e9 7bbe 636a 843c 9d3e 78bc
00000060: f0a2 b93d 2d2c 173e 3a29 a1bd a08d 0a3e
00000070: 2a4b 2ebe a76c e0bb 0292 1d3c ed12 523e
00000080: 975b a03d 1fe2 923e 23ac 5f3b b64c 453d
00000090: f853 d2bd 75a6 493d d4a9 983d fa8d 923d
000000a0: d758 a8b9 459a 0a3e 54b6 683d 8eac 8abd
000000b0: 57e7 3abe e6a1 153e 1053 983d 4310 39be
000000c0: 725d 763d 2e93 a33e e19f a4bc 7363 45be
000000d0: fb0f 1c3d 66bf acbd 5540 2f3d 015d c6bd
000000e0: 7332 a03c 5fb9 483e 86af 163d 1c90 57be
000000f0: 07a9 c03d 67f1 67bc bed5 0e3d d44b 50be
00000100: d249 e43b 3479 443e 49cc ed3c 8f33 ddbe
00000110: 7675 1f3e 9f43 7ebd 27f6 f33c d419 d2be
00000120: 4107 4cbd 44de 2bbe f2e9 d5ba f8c8 cdbc
00000130: 9bf6 823c 7b27 45be 146c b63d df17 0dbd
00000140: 2879 aa3d bbcb 0bbe 7b66 cebd 1cd3 223d
00000150: 335e c83d d430 d3bd a153 d3bd 6968 59bc
00000160: d72c 51bd 48b9 2abd 89e4 ea3c 67bc ab3e
00000170: 85fe c73d f9e4 75bd 9eb2 73bc 3bfc 603e
00000180: 6816 393e 86c0 253b ccf3 1cbe a30d cd3b
00000190: f2cc 813d c869 1d3c 4cb6 bebd bfba c23d
000001a0: 2a6e d23d a826 f23d 5df7 9cbd 859a e9bd
000001b0: 7105 6abd 504a 2e3e 2db1 25bd 8779 bfbd
000001c0: e0fb c83d c060 d73d 770c 9b3d 96d9 41bc
000001d0: e292 01be 9405 5c3e 57d6 db3d fde8 493c
000001e0: 803b 2bbc caac 3fbe aa15 9a3d d716 16be
000001f0: e6b6 6d3e e74c 96ba 012e 5e3d a755 93bd
00000200: 8968 063d 604d 2abe 3704 873d 395e 813d
00000210: 0d29 883e 7af3 98bc aa0a 50bc 25d7 b33d
00000220: a10d 353d b039 6abe 156e 153d 3a00 9ebb
00000230: 3c62 b43e f502 e03b 1083 a8bb 4bfd be3c
00000240: a97a 103b 55e6 b23d d6ff e5bd 4291 213e
00000250: 1a6f b9bd 269d af3d cef6 2bbe fcc3 413e
00000260: bf38 af3b 24f4 5a3d 7df3 0d3d 8420 64bc
00000270: a043 28be db71 a63c 9fad 493c 31a3 c8bb
00000280: 4a40 bbbd c009 9fbc af72 923d d295 8e3c
00000290: 18f5 75be 2834 4c3b d3a9 a93d 7be5 fe3c
000002a0: df6d a9bd 047e f23d 162a 20bd 41d6 5a3d
000002b0: 7d92 0e3e 262a f2bd b23e 31bd cee7 8b3d
000002c0: d6b9 c3bd 474b 243e 8eb3 5d3d 94f2 673e
000002d0: b500 283d bbdc b4bd 737e 40bc 6eb6 143e
000002e0: 8983 f3bd 257f 153e 3bc7 38be ca0d 833e
000002f0: 1402 ad3d f7df fdbd 7091 c3bd f957 193e
00000300: 2907 04bc f33d 803d 3c33 303b 6840 1abe
00000310: 2a8e 2dbe 3f69 24bd e882 c23d 4be8 0abe
00000320: 7560 e3bc f601 4b3d 95ab c93d 8481 15be
00000330: 183a ba3d 6e85 343d b2f2 50bc bd0c 53be
00000340: 3df4 193d be13 7ebc 2c4c d53d e8ad b1be
00000350: 9246 453e 9d02 473d 5e58 593d 6f12 96be
00000360: 3f75 473e c843 503d e4e7 c53d ae6e 8abe
00000370: 5ff3 053e 169f 8ebd 42c0 923d a96e 3fbe
00000380: e545 0c3e 9813 393b c4c1 88bc 7818 59be
00000390: 10a3 da3d a848 eabc 9f1d 41bd 0822 78be
000003a0: a4ab b03d 0b0c f5bc 5963 193d 6293 85be
000003b0: 99dd b3bd 10b0 fdbd a2a4 81bd 7881 76be
000003c0: 1ed8 d63c ca91 80bd 8eb5 da3d 2253 6a3d
000003d0: df65 d93b 757d b43d 7918 3c3d 10a3 a23b
000003e0: 02e2 893d 7878 c8bd c620 30bd 5af7 ac3d
000003f0: fe17 95bd 2a9d 523d 9665 903c b7e0 fabc

fc1.bias f4 [256]
0.061199352 -0.039756075 0.012872393 -0.072386876 -0.114416026 -0.07163299 -0.026011596 -0.13973156
0.105291665 0.12492878 0.0778769 0.12286118 0.16234007 0.14644599 0.1342061 0.14138119
-0.15535271 0.05613217 0.078698434 -0.18632981 0.027533026 0.04989664 0.06662081 0.18134856
-0.19294105 0.22921422 -0.027006382 0.08608377 -0.09459992 -0.09863041 -0.08711135 -0.03406764
-0.026621738 -0.14792372 -0.2437338 -0.15720579 -0.061111927 -0.11835396 -0.05730447 -0.036577184
0.009664371 -0.12242219 -0.16944128 0.027648414 -0.15603882 -0.07828542 0.07660541 -0.004710242
-0.065390565 -0.06163137 0.1755229 -0.008324518 0.07545237 0.055584762 -0.04782518 0.07734804
0.23688383 -0.04787421 -0.17717731 -0.06438897 -0.17513761 0.102381706 -0.2511517 -0.079732776
0.4108629 0.17867565 -0.06720431 0.13456963 -0.16957736 -0.2712231 0.114581496 0.09953297
-0.07231813 0.09144956 0.0137146 0.13343932 -0.06546141 0.13885467 0.20227219 0.17551184
-0.27093673 0.13182037 0.05744881 0.1655134 0.018031277 -0.1424861 0.1709848 0.22116818
-0.081197284 0.1696974 0.14876106 -0.20688206 0.24542199 -0.05231638 -0.03046233 -0.116155244
-0.25517723 -0.13173437 0.023574399 -0.0055414545 0.031157488 0.11454628 -0.028846107 -0.010494539
0.06683433 0.07089348 -0.0035314246 0.11286346 0.07727359 -0.27624518 0.2507875 0.18496011
-0.12599048 0.073364526 0.24255401 0.198667 0.22835281 -0.014985363 0.122763835 0.34379914
0.07687141 -0.12165959 0.0024944402 -0.20785004 -0.15754777 0.12828879 -0.10192425 -0.0721236
0.051518776 0.1483476 0.12368976 -0.14093299 0.2644069 0.20252334 -0.19377789 -0.022743706
0.049596023 0.25998947 0.042186692 0.07060209 -0.087607734 0.11875685 0.042289436 -0.01711051
-0.14328244 -0.13300711 -0.109757505 -0.029024716 0.20160133 0.16956073 0.016691105 0.24824527
0.020734327 0.13391319 0.0023702823 0.22046928 0.020366099 0.07186178 0.02705394 -0.25721404
0.030266322 0.23442556 0.35041368 -0.14339508 -0.08564282 -0.102632165 0.057059444 0.27949002
0.3509527 -0.12212781 -0.00477613 0.09286745 0.0814167 0.11868044 0.18450034 -0.13800862
0.17034757 -0.041747354 0.117586575 -0.091651745 0.26664147 -0.120204635 0.14729531 0.1144003
0.16732302 -0.040256865 -0.13883878 0.10570388 -0.099921174 -0.05772604 0.26933837 0.10069277
0.03414751 -0.044076525 -0.08117934 0.17448348 0.2834501 0.19597311 0.17339194 -0.06511062
0.056230273 0.27258876 0.2073093 0.049567536 0.067438915 -0.09188933 0.12340261 0.059281304
-0.12616527 -0.19455704 0.14266443 0.059584185 0.08502259 0.019183652 -0.16287263 -0.107708
0.22484562 -0.074073724 0.0948427 0.2078868 -0.19250488 0.12177277 -0.32343733 0.17741542
0.23093146 0.15436858 -0.16753308 -0.042318463 0.08629626 -0.113698706 0.077533215 -0.1050965
-0.1275515 -0.07159518 0.043318454 0.026571851 0.11626303 -0.10707884 -0.13460474 0.1904616
-0.10659271 -0.09325178 0.014589424 0.08592802 -0.20387413 0.15919027 -0.15625209 0.020063391
-0.12951356 0.05319548 0.28205633 -0.12427814 -0.08706345 0.1509394 0.17371497 -0.07743877
00000000: 2cac 7a3d 44d7 22bd bbe6 523c 923f 94bd
00000010: f352 eabd 51b4 92bd 4516 d5bc ca15 0fbe
00000020: 28a3 d73d a9da ff3d ed7d 9f3d a49e fb3d
00000030: 7a3c 263e f0f5 153e 536d 093e 3bc6 103e
00000040: c814 1fbe d9ea 653d a52c a13d 3ecd 3ebe
00000050: f18c e13c 6b60 4c3d 7e70 883d 70b3 393e
00000060: 5792 45be 22b7 6a3e 7d3c ddbc b04c b03d
00000070: 9abd c1bd befe c9bd 6f67 b2bd 828a 0bbd
00000080: d515 dabc 5179 17be 5a95 79be 8efa 20be
00000090: 8050 7abd 9063 f2bd 18b8 6abd f5d1 15bd
000000a0: 4f57 1e3c 7cb8 fabd 0482 2dbe ed7e e23c
000000b0: a4c8 1fbe 1b54 a0bd 4ce3 9c3d 6058 9abb
000000c0: 7deb 85bd 2d71 7cbd 46bc 333e 8f63 08bc
000000d0: c686 9a3d d9ac 633d 56e4 43bd a668 9e3d
000000e0: ad91 723e bf17 44bd f86d 35be 5dde 83bd
000000f0: 4657 33be 80ad d13d f596 80be f04a a3bd
00000100: 9f5c d23e c0f6 363e 6aa2 89bd 9fcc 093e
00000110: b0a5 2dbe c1dd 8abe b4a9 ea3d f1d7 cb3d
00000120: 871b 94bd e849 bb3d 34b3 603c 51a4 083e
00000130: a210 86bd eb2f 0e3e 7120 4f3e 60b9 333e
00000140: 38b8 8abe ebfb 063e 724f 6b3d 587c 293e
00000150: 54b6 933c e0e7 11be a416 2f3e e979 623e
00000160: c34a a6bd 28c5 2d3e d254 183e e4d8 53be
00000170: e74f 7b3e b349 56bd 238c f9bc cde2 edbd
00000180: 97a6 82be 60e5 06be 191f c13c 1795 b5bb
00000190: fd3d ff3c 3d97 ea3d ac4e ecbc 49f1 2bbc
000001a0: 70e0 883d 9a30 913d 796f 67bb f524 e73d
000001b0: 9e41 9e3d 0270 8dbe 3867 803e 2f66 3d3e
000001c0: a603 01be 2440 963d 1460 783e 5d6f 4b3e
000001d0: 52d5 693e 2b85 75bc 9b6b fb3d 7106 b03e
000001e0: c26e 9d3d aa28 f9bd c379 233b a4d6 54be
000001f0: 3454 21be 235e 033e a9bd d0bd 8ab5 93bd
00000200: 5a05 533d 6fe8 173e 0f51 fd3d bd50 10be
00000210: 5760 873e 4762 4f3e b66d 46be 0251 babc
00000220: 3325 4b3d 571d 853e f4cb 2c3d d497 903d
00000230: af6b b3bd cb36 f33d b037 2d3d 572b 8cbc
00000240: a2b8 12be 0433 08be 8bc8 e0bd 3ec5 edbc
00000250: 9470 4e3e 54a1 2d3e c9bb 883c 0234 7e3e
00000260: 09db a93c 8a20 093e bd56 1b3b b3c2 613e
00000270: ced6 a63c 452c 933d 39a0 dd3c 8fb1 83be
00000280: 14f1 f73c 410d 703e 6c69 b33e 29d6 12be
00000290: 8165 afbd d030 d2bd 2ab7 693d 5119 8f3e
000002a0: 13b0 b33e 251e fabd 1581 9cbb 4a31 be3d
000002b0: ccbd a63d bb0e f33d a8ed 3c3e 2252 0dbe
000002c0: 986f 2e3e 46ff 2abd 3bd1 f03d e9b3 bbbd
000002d0: 3b85 883e d92d f6bd 95d4 163e b44a ea3d
000002e0: ba56 2b3e 62e4 24bd c12b 0ebe 477b d83d
000002f0: 79a3 ccbd 2472 6cbd b8e6 893e 0338 ce3d
00000300: 42de 0b3d 9689 34bd 5b41 a6bd ccab 323e
00000310: 5f20 913e 2dad 483e a88d 313e b758 85bd
00000320: b751 663d c190 8b3e e448 543e 5407 4b3d
00000330: 6a1d 8a3d 7930 bcbd 82ba fc3d f4d0 723d
00000340: 7831 01be f639 47be a016 123e 8c0e 743d
00000350: 5320 ae3d 0927 9d3c 15c8 26be 0396 dcbd
00000360: ee3d 663e f7b3 97bd e43c c23d 47e0 543e
00000370: 0020 45be 0164 f93d 9499 a5be 63ac 353e
00000380: 4c79 6c3e cc12 1e3e cb8d 2bbe 2056 2dbd
00000390: 18bc b03d deda e8bd bcc9 9e3d d53c d7bd
000003a0: dc9c 02be 7ea0 92bd b16e 313d 36ad d93c
000003b0: 501b ee3d 274c dbbd d3d5 09be 5e08 433e
000003c0: 474d dabd cafa bebd 7b08 6f3c 08fb af3d
000003d0: 61c4 50be c602 233e 8c00 20be fb5b a43c
000003e0: 349f 04be 81e3 593d b069 903e 8a85 febd
000003f0: 524e b2bd dc8f 1a3e 56e2 313e 3898 9ebd

fc2.weight f4 [128, 256]
0.48621097 -0.08122142 -0.048272252 0.14534871 -0.105156116 -0.18530321 0.022251246 0.042559434
0.010870167 -0.27653798 -0.15781015 0.19205624 0.1814292 -0.034779236 0.08416876 0.107889
0.05783821 0.28310856 -0.31916255 0.01904978 0.028354354 -0.28828713 -0.01298005 0.25293374
-0.2840503 0.28840047 -0.21074218 0.21842682 -0.0152353225 0.014850355 -0.121416435 -0.08833177
0.005226726 -0.08381365 -0.24303956 0.031394634 -0.16165835 -0.21346001 -0.15348627 -0.345666
-0.26495716 -0.14774264 -0.08187974 -0.11927816 -0.17957896 -0.4325455 -0.13557601 0.12734751
-0.16292585 -0.043457307 -0.15748557 0.08959608 0.22404286 0.01813711 -0.21765128 0.07190619
0.23562126 -0.098024204 -0.38562217 0.28686985 -0.077408016 -0.17227246 -0.06098666 0.117424875
-0.00978905 0.03240168 0.23070954 -0.2392041 0.10022829 -0.12639965 0.07012026 -0.06565572
-0.26526347 -0.2331752 -0.149063 -0.028412562 -0.11883986 -0.044031695 0.25521067 0.41577238
-0.25582397 -0.14993134 -0.059358064 -0.27116314 0.12573215 0.039363686 0.018796615 -0.047909793
-0.20591334 0.09984455 0.115830965 0.14748071 -0.028394878 -0.02247995 -0.09812793 -0.021400584
-0.020780655 0.15802361 0.14152387 -0.16948476 -0.22772396 -0.20181276 0.029360974 -0.08381867
0.07130451 -0.31227863 0.16125457 0.040697426 -0.17582276 -0.1118572 0.057394825 0.2567924
0.013351011 0.21577834 0.20612964 -0.0091290325 0.17934553 -0.13291276 0.094632514 -0.012991556
-0.014292246 -0.15364979 0.04223791 -0.08705185 0.01601482 0.08380319 -0.26052508 -0.10864658
0.037344296 0.011072982 -0.1535437 -0.053141143 -0.11009709 0.09340525 0.009768909 -0.006825558
-0.058853626 0.11276859 0.16960908 -0.16375713 -0.19705215 0.092801705 -0.32893622 -0.095513076
0.05238259 0.12925726 0.009284431 -0.006396379 0.30490753 0.037858374 0.048958696 -0.18218702
-0.15383373 -0.18511987 0.055315766 -0.07213158 0.017036855 0.17615455 0.17759421 -0.061219357
-0.013928819 0.04043513 0.00013966831 -0.0871239 0.17788522 -0.06415153 -0.07786873 -0.1129722
-0.25758964 0.11542501 0.13778459 0.04106871 0.14650671 0.22115093 -0.014857594 -0.34594384
-0.22704513 -0.002204986 -0.15967853 0.20378242 -0.21757975 -0.18570997 0.13686346 0.1578669
-0.25395182 -0.29650885 -0.22479975 -0.19215454 -0.4154593 -0.025600553 0.14505838 0.26794645
-0.1553698 0.2005105 -0.08684581 0.10718106 0.147937 0.081915244 0.16877417 -0.15926
-0.19838658 -0.43871164 0.016738245 0.01488568 0.17421632 -0.028606618 0.14200905 -0.061415642
0.07976461 -0.17912652 -0.34197336 -0.28610882 -0.04071432 0.1844751 0.14320217 -0.09657279
0.14095543 0.19045863 0.05879522 0.16752265 -0.5962815 0.1817668 -0.2298075 -0.17853698
0.034216695 -0.19716327 -0.14885499 0.07020332 0.3143507 -0.14442182 0.08459452 -0.05338343
-0.13651179 -0.22327119 -0.005252792 -0.0016796499 -0.23831573 0.001152447 0.087760694 -0.016033238
-0.2658874 0.16491267 0.13119537 0.059687614 -0.34608823 -0.16874088 0.03986252 0.06712539
-0.21136972 0.15754463 0.17766726 -0.025967827 -0.037128385 -0.038130496 0.18338685 -0.015322383
00000000: a5f0 f83e 6a57 a6bd 20b9 45bd 4bd6 143e
00000010: 175c d7bd 20c0 3dbe 3f48 b63c cd52 2e3d
00000020: c918 323c 6396 8dbe fc98 21be 64aa 443e
00000030: 94c8 393e ac74 0ebd ac60 ac3d e8f4 dc3d
00000040: c2e7 6c3d 9bf3 903e 4669 a3be 490e 9c3c
00000050: 6447 e83c 5f9a 93be 47aa 54bc 8880 813e
00000060: 0a6f 91be 3aa9 933e cccc 57be 48ab 5f3e
00000070: 939d 79bc e74e 733c 2ea9 f8bd 49e7 b4bd
00000080: f544 ab3b 7ea6 abbd 5ddf 78be a997 003d
00000090: c489 25be 4395 5abe 812b 1dbe 22fb b0be
000000a0: 77a8 87be d949 17be 91b0 a7bd 1c48 f4bd
000000b0: 8ce3 37be 9b76 ddbe 70d4 0abe 6367 023e
000000c0: 09d6 26be 4a00 32bd e643 21be 267e b73d
000000d0: 7e6b 653e 4794 943c fadf 5ebe 8d43 933d
000000e0: b346 713e eac0 c8bd 4570 c5be 9be0 923e
000000f0: 1888 9ebd 3168 30be 26cd 79bd 747c f03d
00000100: 4062 20bc a0b7 043d 1f3f 6c3e ebf1 74be
00000110: 7d44 cd3d e96e 01be 369b 8f3d 8276 86bd
00000120: 9dd0 87be 7bc5 6ebe f9a3 18be 76c1 e8bc
00000130: 5062 f3bd 945a 34bd f9aa 823e 1ee0 d43e
00000140: 5cfb 82be 9a87 19be 7121 73bd e5d5 8abe
00000150: eebf 003e d13b 213d 5cfb 993c 0f3d 44bd
00000160: f2da 52be 4d7b cc3d c938 ed3d 2f05 173e
00000170: 609c e8bc df27 b8bc 4cf7 c8bd 4750 afbc
00000180: 313c aabc f1d0 213e a2eb 103e 6a8d 2dbe
00000190: 7830 69be 01a8 4ebe 6d86 f03c 1fa9 abbd
000001a0: 1908 923d fce2 9fbe eb1f 253e 58b2 263d
000001b0: e20a 34be 6315 e5bd d616 6b3d 4b7a 833e
000001c0: 33be 5a3c fff4 5c3e a613 533e f091 15bc
000001d0: 5ba6 373e 481a 08be b1ce c13d 89da 54bc
000001e0: 062a 6abc 5f56 1dbe a901 2d3d 3e48 b2bd
000001f0: 8331 833c 02a1 ab3d 8b63 85be 1982 debd
00000200: 55f6 183d 746b 353c 8f3a 1dbe 87aa 59bd
00000210: 957a e1bd 404b bf3d c60d 203c eea8 dfbb
00000220: 8010 71bd 38f3 e63d 01ae 2d3e f3af 27be
00000230: 0ac8 49be d20e be3d 546a a8be 5c9c c3bd
00000240: 208f 563d 045c 043e ba1d 183c b798 d1bb
00000250: d71c 9c3e 6211 1b3d ea88 483d 3c8f 3abe
00000260: 9786 1dbe 1090 3dbe c992 623d b9b9 93bd
00000270: e090 8b3c dc61 343e 42db 353e 26c1 7abd
00000280: b435 64bc 4f9f 253d ed73 1239 046e b2bd
00000290: 8b27 363e e161 83bd a479 9fbd f85d e7bd
000002a0: cae2 83be f363 ec3d 6717 0d3e aa37 283d
000002b0: db05 163e 6475 623e 446d 73bc 8d1f b1be
000002c0: 857e 68be 8781 10bb c582 23be 57ac 503e
000002d0: 3acd 5ebe c12a 3ebe ef25 0c3e dca7 213e
000002e0: f905 82be 02d0 97be e831 66be 29c4 44be
000002f0: 15b7 d4be 40b8 d1bc 2f8a 143e 4730 893e
00000300: 4319 1fbe a052 4d3e 37dc b1bd be81 db3d
00000310: cc7c 173e 2ec3 a73d 23d3 2c3e 0e15 23be
00000320: da25 4bbe d09e e0be a51e 893c 11e3 733c
00000330: c365 323e 6d58 eabc d26a 113e f88e 7bbd
00000340: a15b a33d f16c 37be 2217 afbe db7c 92be
00000350: 0fc4 26bd 0ae7 3c3e 97a3 123e f4c7 c5bd
00000360: 9f56 103e 9607 433e 42d3 703d 0f8b 2b3e
00000370: e8a5 18bf 1321 3a3e a852 6bbe 66d2 36be
00000380: ce26 0c3d 2be5 49be 716d 18be c2c6 8f3d
00000390: 93f2 a03e 50e3 13be e43f ad3d 95a8 5abd
000003a0: bfc9 0bbe 34a1 64be 9d1f acbb b327 dcba
000003b0: 0a09 74be b40d 973a e1bb b33d 2358 83bc
000003c0: 6522 88be dede 283e 1458 063e 007b 743d
000003d0: 7a32 b1be 69ca 2cbe e246 233d 0979 893d
000003e0: 4e71 58be 6153 213e 68ee 353e 7bba d4bc
000003f0: ef13 18bd b92e 1cbd c3c9 3b3e bb0a 7bbc

fc2.bias f4 [128]
0.1494025 0.0659003 0.0944687 -0.040009648 0.07241668 0.0050887605 0.0037340536 0.03388194
-0.017624892 0.09114153 -0.057580598 0.07587403 -0.00023218812 0.1041529 -0.025685182 0.029709464
-0.042967908 0.107379265 0.0797762 -0.0053796135 0.016018573 0.025079457 -0.022876272 -0.058014568
0.00079546525 0.102349974 -0.0859178 0.07681599 0.08464335 -0.027228758 -0.02755642 0.12870108
0.087564014 0.027876727 -0.007684661 -0.025365354 -0.0066248965 0.20844635 -0.0027268017 0.14791624
0.031148179 0.04347929 0.041998025 0.044485237 0.061525702 0.11479238 -0.009714876 0.050823797
0.05937954 0.102441676 0.015401182 0.05563131 -0.07030936 -0.00069933303 0.0280553 -0.021438042
0.11402259 0.09616972 0.011566965 -0.08382337 -0.030169232 0.10842126 -0.063656166 0.0059092534
-0.041700862 0.10807124 0.036195554 0.024531811 0.039871495 -0.027587833 0.029976152 0.015441353
0.015620887 0.10766711 0.024094697 -0.05601788 -0.01061451 0.060609896 0.021923972 0.005693652
-0.048608467 0.060857233 0.064937845 -0.03119481 0.037649345 0.1387433 0.02004619 -0.0889457
0.09437393 -0.039331988 0.1200034 0.08689453 -0.11739227 0.09296154 0.06091569 0.035013728
-0.054975826 0.101253144 -0.075958006 0.038698096 0.032880716 0.04906698 0.075916685 -0.054552644
-0.07896358 -0.14766578 0.12772477 0.107189916 -0.035903934 0.1264771 0.061174434 0.09483955
0.054062597 0.0075703696 -0.015067213 0.109634176 0.13295789 0.08028936 -0.002539708 0.11689266
-0.02364175 -0.13628586 0.0059927334 0.07787486 0.03740805 -0.04401973 -0.081137694 -0.015896546
00000000: f8fc 183e bdf6 863d ce78 c13d 28e1 23bd
00000010: 324f 943d 9ebf a63b 06b7 743b cac7 0a3d
00000020: 1462 90bc 69a8 ba3d a2d9 6bbd d863 9b3d
00000030: 8677 73b9 1e4e d53d bb69 d2bc 4361 f33c
00000040: 1eff 2fbd a9e9 db3d b461 a33d 7847 b0bb
00000050: 6239 833c 6f73 cd3c 0567 bbbc afa0 6dbd
00000060: c586 503a dd9c d13d acf5 afbd b451 9d3d
00000070: 7e59 ad3d d80e dfbc 00be e1bc 37ca 033e
00000080: c354 b33d bc5d e43c 9ccf fbbb 01cb cfbc
00000090: a915 d9bb f672 553e 24b4 32bb 5b77 173e
000000a0: 772a ff3c 5717 323d 1f06 2c3d 2736 363d
000000b0: 6002 7c3d 4418 eb3d 252b 1fbc 9d2c 503d
000000c0: f637 733d f1cc d13d 3d55 7c3c a8dd 633d
000000d0: 5bfe 8fbd 7253 37ba 3ad4 e53c d59e afbc
000000e0: ad84 e93d a1f4 c43d 5e83 3d3c 96ab abbd
000000f0: 7725 f7bc f70b de3d 2a5e 82bd 69a2 c13b
00000100: 86ce 2abd 7454 dd3d ca41 143d f0f6 c83c
00000110: 4b50 233d e1ff e1bc 8c90 f53c bbfd 7c3c
00000120: c0ee 7f3c 9380 dc3d 3e62 c53c 0173 65bd
00000130: 7be8 2dbc 1542 783d e799 b33c d191 ba3b
00000140: ac19 47bd 6f45 793d 22fe 843d 428c ffbc
00000150: 3336 1a3d b912 0e3e e837 a43c 2a29 b6bd
00000160: 1e47 c13d 941a 21bd 58c4 f53d c2f5 b13d
00000170: 5c6b f0bd 9f62 be3d bb82 793d 8e6a 0f3d
00000180: 552e 61bd cf5d cf3d df8f 9bbd e581 1e3d
00000190: eead 063d 75fa 483d 357a 9b3d 9872 5fbd
000001a0: a8b7 a1bd b335 17be 48ca 023e 6386 db3d
000001b0: 0110 13bd 3783 013e 0b92 7a3d 3d3b c23d
000001c0: be70 5d3d dd10 f83b 79dc 76bc e287 e03d
000001d0: 1d26 083e bf6e a43d 3b71 26bb 6b65 ef3d
000001e0: 58ac c1bc 858e 0bbe b15e c43b db7c 9f3d
000001f0: 2f39 193d 084e 34bd 852b a6bd 7939 82bc

fc3.weight f4 [2, 128]
0.019518912 -0.474412 -0.07692091 -0.523826 -0.4321571 -0.057347704 0.17653498 -0.14582103
-0.15667786 -0.16916402 -0.1413556 0.1563666 -0.27337855 -0.28380343 -0.21651056 -0.09485317
-0.0018835214 -0.15514642 -0.31356117 -0.02378552 0.63739866 -0.21072923 -0.24754523 -0.64640176
-0.08648416 -0.23149493 -0.2559687 -0.13500296 -0.29343188 -0.026001114 0.10087416 0.029462963
0.40562946 -0.225762 0.19912276 0.01593227 -0.22199516 0.46877933 0.048127934 0.14839745
-0.29416996 -0.16574249 0.5003939 -0.36346844 0.07554795 -0.3441516 -0.006288535 0.22589657
-0.14898054 -0.3283507 0.082832165 0.038814377 0.043574512 0.16922137 0.032847237 -0.051965743
0.1549486 0.20462394 0.10273459 -0.2803347 -0.29649872 -0.3709448 0.09062447 -0.20512933
0.7243295 -0.20152509 -0.38328335 -0.2088202 -0.18427162 -0.13193236 0.66337 0.17343341
-0.13436309 -0.09523356 -0.19644146 0.8023156 -0.20899822 -0.0920032 -0.32400006 -0.1809108
-0.25819826 0.055724982 -0.33076608 -0.108005956 -0.023982871 0.20054844 -0.19252388 0.020574994
0.18362159 0.0043337946 -0.25507334 0.104436256 0.0034564578 -0.34371966 0.13260071 0.28675956
0.011557493 -0.37382925 -0.2957508 -0.3386688 -0.31638607 -0.28079626 0.31770343 0.22244787
0.06171208 0.3386619 -0.22367953 -0.12811685 0.07617319 -0.038463958 0.13564031 0.13577574
-0.044459052 -0.06575501 -0.31743902 0.090144634 -0.17925845 0.16888808 0.10350508 -0.0165574
0.15908808 0.002025899 -0.48835415 -0.29752314 -0.15164281 -0.10876448 0.1364654 -0.19929013
0.63282496 0.14421514 0.22899339 0.50957245 -0.33582333 -0.1236703 0.124700695 -0.056773033
-0.6906839 0.42207295 -0.48966196 0.88157445 0.08713854 -0.06381694 -0.23057258 0.5723736
-0.19274414 0.3206938 -0.26277143 -0.09072667 0.1887777 -0.122273184 0.43157873 0.5005388
-0.20368345 -0.0012015733 0.34223512 0.114635184 -0.13426395 -0.2958155 -0.1729038 0.15488991
0.25780103 -0.13212998 0.2587778 -0.071378 -0.06210583 0.6552585 -0.045001753 0.55124724
0.08931101 -0.24126242 0.20233247 0.24334936 -0.27015513 0.045630272 0.0044255075 0.06388107
0.11475656 0.2807767 0.3454148 0.24933112 -0.10865201 0.5624168 0.24856101 -0.25425386
0.1419508 0.2690702 0.5385761 -0.40013528 0.46146977 -0.15961042 -0.10090967 -0.3114512
-0.29411477 0.35034353 0.3485321 -0.01357172 0.24422829 -0.14224486 0.05669132 0.8376221
-0.109223545 0.62667125 -0.43108255 0.13319473 -0.052201215 0.20571348 0.13694552 -0.25678018
-0.18258816 0.017295044 0.6986151 0.2413038 -0.2484237 0.15642183 -0.23526584 -0.055198286
0.05697035 -0.1084712 0.29039046 0.07184394 -0.086916536 0.13261656 0.007584077 0.11021138
-0.026299845 0.50102437 0.044446353 -0.12405344 -0.20297162 0.30036137 0.22189829 0.47963068
-0.12067055 -0.24160424 0.082900636 0.121846706 -0.104496576 0.2589923 0.03991779 0.02621759
0.49469492 -0.10912019 -0.2792854 0.08642227 0.23307724 0.177975 0.00717964 0.2671412
-0.1734209 -0.3103213 0.21400465 0.17344353 0.14290138 -0.15558723 -0.09281617 -0.23478168
00000000: 20e6 9f3c 21e6 f2be b688 9dbd 7619 06bf
00000010: b243 ddbe 6de5 6abd 96c5 343e 1c52 15be
00000020: 2970 20be 5539 2dbe 86bf 10be 911e 203e
00000030: 46f8 8bbe af4e 91be f2b4 5dbe 6142 c2bd
00000040: 7ee0 f6ba b4de 1ebe 178b a0be dad9 c2bc
00000050: 8f2c 233f 67c9 57be 7f7c 7dbe 967a 25bf
00000060: 9b1e b1bd 020d 6dbe 540e 83be 373e 0abe
00000070: b43c 96be 4a00 d5bc 1d97 ce3d 505c f13c
00000080: aaae cf3e 272e 67be d6e6 4b3e 6484 823c
00000090: b352 63be d803 f03e cc21 453d 80f5 173e
000000a0: 729d 96be 66b8 29be d119 003f 8918 babe
000000b0: e2b8 9a3d a334 b0be 0e10 cebb 6e51 673e
000000c0: 5b8e 18be 951d a8be e9a3 a93d d3fb 1e3d
000000d0: 307b 323d 5e48 2d3e d38a 063d 08da 54bd
000000e0: d9aa 1e3e f088 513e 8366 d23d 0888 8fbe
000000f0: aece 97be 7aec bdbe 5299 b93d 6c0d 52be
00000100: a86d 393f 985c 4ebe b73d c4be f6d4 55be
00000110: b3b1 3cbe 4719 07be 9ed2 293f 8798 313e
00000120: 7a96 09be d009 c3bd f327 49be 8e64 4d3f
00000130: a103 56be 2c6c bcbd 56e3 a5be ae40 39be
00000140: 9032 84be e13f 643d 2c5a a9be 3a32 ddbd
00000150: ba77 c4bc 925c 4d3e fb24 45be e48c a83c
00000160: 4c07 3c3e 8102 8e3b f998 82be ade2 d53d
00000170: bd85 623b 06fc afbe 7bc8 073e 26d2 923e
00000180: a45b 3d3c 8c66 bfbe a66c 97be ff65 adbe
00000190: 5bfd a1be 87c4 8fbe 06aa a23e 60c9 633e
000001a0: cec5 7c3d 1865 ad3e 3f0c 65be 1031 03be
000001b0: b000 9c3d 628c 1dbd 4be5 0a3e cc08 0b3e
000001c0: b21a 36bd 90aa 86bd 5e87 a2be c09d b83d
000001d0: 878f 37be fff0 2c3e 79fa d33d 62a3 87bc
000001e0: fce7 223e f2c4 043b 8e09 fabe f454 98be
000001f0: 4148 1bbe e9bf debd 96bd 0b3e b612 4cbe
00000200: d100 223f 22ad 133e 3e7d 6a3e 5773 023f
00000210: 09f1 abbe db46 fdbd 1463 ff3d d78a 68bd
00000220: a9d0 30bf f219 d83e f9b4 fabe ddae 613f
00000230: b175 b23d 75b2 82bd 381b 6cbe 1487 123f
00000240: b85e 45be fa31 a43e fa89 86be e8ce b9bd
00000250: f14e 413e 5d6a fabd e3f7 dc3e 5023 003f
00000260: 6592 50be 1c7e 9dba 7139 af3e dac5 ea3d
00000270: 7d7c 09be 2175 97be b20d 31be 769b 1e3e
00000280: 7ffe 833e 154d 07be 867e 843e a12e 92bd
00000290: af62 7ebd 05bf 273f c253 38bd 8a1e 0d3f
000002a0: b1e8 b63d 7f0d 77be 3e30 4f3e 9330 793e
000002b0: c651 8abe cfe6 3a3d d903 913b 14d4 823d
000002c0: 7d05 eb3d f7c1 8f3e 35da b03e a850 7f3e
000002d0: f284 debd 8cfa 0f3f c786 7e3e 902d 82be
000002e0: 8d5b 113e 92c3 893e 20e0 093f 88de ccbe
000002f0: c445 ec3e ea70 23be bba9 cebd 8876 9fbe
00000300: 3696 96be 3a60 b33e cd72 b23e eb5b 5ebc
00000310: fb16 7a3e a3a8 11be 2835 683d 676e 563f
00000320: 98b0 dfbd 876d 203f dab6 dcbe 3364 083e
00000330: f1d0 55bd 8ea6 523e 723b 0c3e b178 83be
00000340: 64f8 3abe 56ae 8d3c 70d8 323f 5818 773e
00000350: c862 7ebe 0b2d 203e 87e9 70be 9917 62bd
00000360: be59 693d 2626 debd 0fae 943e ea22 933d
00000370: 4c01 b2bd a3cc 073e d983 f83b 81b6 e13d
00000380: c672 d7bc 2243 003f 610d 363d bb0f febd
00000390: cbd7 4fbe f7c8 993e 4e39 633e 2792 f53e
000003a0: 1f22 f7bd 1a67 77be cfc7 a93d c48a f93d
000003b0: 4d02 d6bd a49a 843e d680 233d 45c6 d63c
000003c0: a748 fd3e 687a dfbd 7ffe 8ebe 29fe b03d
000003d0: cdab 6e3e 143f 363e 2f43 eb3b bbc6 883e
000003e0: 4095 31be 6fe2 9ebe 0924 5b3e 2e9b 313e
000003f0: bd54 123e 4252 1fbe 6716 bebd 9c6a 70be

fc3.bias f4 [2]
0.017285354 -0.026834942
00000000: 049a 8d3c f4d4 dbbc
