checkpoint_actor2.pth (torch_old, 160208 bytes, 10 tensors)

bn.weight f4 [24]
00000000: d3e8 273f 81d0 213f 5722 113e a000 1c3f
00000010: c377 0d3f e405 733f 550e 1d3f 7292 883f
00000020: 6a85 6d3f 74bd 333f ff3a bc3d 480b 4c3e
00000030: 5e25 8f3f 8319 0a3f cfe3 9c3e 4350 b83e
00000040: b058 f23e 4de9 003f 8751 243f 768e 573f
00000050: c787 1a3f c151 943e d64f 683e 09a2 653e
0.65589637 0.63208777 0.14173256 0.60938454 0.55260867 0.94930863 0.61349994 1.0669692
0.927817 0.7021096 0.0919094 0.19926178 1.1183279 0.5394518 0.30642554 0.35998735
0.47333288 0.5035599 0.641869 0.84201753 0.6036343 0.28968623 0.22686705 0.22425093

bn.bias f4 [24]
00000000: 5987 a53c 3fc4 063d 91e4 77bb 42bc f83a
00000010: f31c cbbc 08ae a23c 5e78 5e3d 0991 bf3c
00000020: 5c1c 1a3c a27a 41bd c141 fb3c 06e2 edbc
00000030: 9e64 40bd 1304 803c 841c 583d 2834 0bbc
00000040: a204 53bd 1d1b 84bd 44a9 843d ea22 e3bc
00000050: d9f9 d6bc 776a 3a3d 0a35 893c 0b98 1bbd
0.02020614 0.032902 -0.0037825445 0.0018977004 -0.024794078 0.019858375 0.05431401 0.023384588
0.009406175 -0.047236092 0.030671002 -0.02903844 -0.046970956 0.015626943 0.05276157 -0.008496322
-0.05151809 -0.06450484 0.06477597 -0.02772661 -0.026242184 0.04551169 0.016748924 -0.037986796

bn.running_mean f4 [24]
00000000: 0000 0000 0000 0000 0000 0000 0000 0000
00000010: 0000 0000 0000 0000 0000 0000 0000 0000
00000020: 0000 0000 0000 0000 0000 0000 0000 0000
00000030: 0000 0000 0000 0000 0000 0000 0000 0000
00000040: 0000 0000 0000 0000 0000 0000 0000 0000
00000050: 0000 0000 0000 0000 0000 0000 0000 0000
0.0 0.0 0.0 0.0 0.0 0.0 0.0 0.0
0.0 0.0 0.0 0.0 0.0 0.0 0.0 0.0
0.0 0.0 0.0 0.0 0.0 0.0 0.0 0.0

bn.running_var f4 [24]
00000000: 0000 803f 0000 803f 0000 803f 0000 803f
00000010: 0000 803f 0000 803f 0000 803f 0000 803f
00000020: 0000 803f 0000 803f 0000 803f 0000 803f
00000030: 0000 803f 0000 803f 0000 803f 0000 803f
00000040: 0000 803f 0000 803f 0000 803f 0000 803f
00000050: 0000 803f 0000 803f 0000 803f 0000 803f
1.0 1.0 1.0 1.0 1.0 1.0 1.0 1.0
1.0 1.0 1.0 1.0 1.0 1.0 1.0 1.0
1.0 1.0 1.0 1.0 1.0 1.0 1.0 1.0

fc1.weight f4 [256, 24]
00000000: ec99 2fbd dda5 b63d 0a08 95bc 1c39 033d
00000010: 8fdf a53d 14f9 9a3d d9f3 afbb 795d 4d3d
00000020: f05c 8dbd bfbf 253d f508 8abc 8422 863c
00000030: a30b 0e3d 9a6b d23d fcde 1abd 31e3 483d
00000040: c427 1cbc 0853 923d 7fc4 f5bc 43dc a43d
00000050: 2d6b e3bd d646 ca3d b728 a33d 18bb 693d
00000060: 9dd2 743b 321e 8d3d 4123 d6bc 082f 80bc
00000070: eb47 da3d 8c73 b13d c0e7 18bd d536 993c
00000080: b3b5 9bbd 17cc 1b3d 23d2 33bc 3213 03bc
00000090: edcc 543d b802 dc3d f910 adbd a9b4 123c
000000a0: 8aa1 093d d99d 863c 7fa7 ef3c 364a a1bd
000000b0: 273b b5bd d7f3 083d 8233 aebd 862d e6bd
000000c0: 46d2 c7bd eee9 f13c cd73 58bc bc67 99bd
000000d0: 6721 f3bd 28bb ea3c 82a0 133d 5816 2dbe
000000e0: 75f6 f03c b646 873c e130 8fba d3d2 98bd
000000f0: a5f2 ccbc baa4 23bd 8ee4 9ebd 0a68 0bbe
00000100: 9008 a2bd c4a1 37bd f576 ba3c 3167 b5bd
00000110: 16b5 f83d db56 813d b9a4 3ebc 5111 d7bd
00000120: df10 42bd ed35 dd3d f820 493c 9925 163d
00000130: 7b9c 87bc 8ac9 a8bd 53a3 8abc 55ed 5c3d
00000140: f639 c1bb 2a84 183e 18b1 53bd b05a 4dbd
00000150: 53fb bcba 18bd bdbd 14be 0ebd 2032 b43c
00000160: 4b17 cf3c 47ac fa3d ebd4 99bc 8537 a8bc
00000170: f438 30bd 9310 17be 83a9 c83b 2645 c83b
00000180: b98e b53d 2abb 8abd 248c 8fbd b466 21bc
00000190: 09bc 523d c229 5cbd 71d7 87bb 800f 0d3d
000001a0: 6ded 9d3d 1abb 3fbe 5768 9fbd 4b3e 39bd
000001b0: 6fc4 1abd 0279 73bd 996a 63bd 012b 0ebe
000001c0: 0327 d5bd 97ca 70be c1ea 27bd 25c1 9e3c
000001d0: 85c3 b73d a864 023e f837 0c3d 48cd 8ebd
000001e0: e187 ccbc 2eaa 3a3e 6da3 2c3c e984 97bd
000001f0: fbd4 44bd a8cb c63b 3b1d 503c 69cf 0e3c
00000200: 5cd9 b0bd 5bf9 023e 8d45 c4bc ec3f 01be
00000210: 73b0 ed3d cebb 04bd 8cd9 c7bc 53e2 11be
00000220: 820d 98bd e7ae 0bbc 5793 a43c d226 84bd
00000230: 5c77 9e3e e437 05be b16e eabc 9c53 fbbd
00000240: b8d8 533c be13 a93e cd8f 92bc c7e6 0b3e
00000250: 5f12 c8bc e63d e4bd 0408 c9bc d70c d93d
00000260: fb12 dc3c b87e be3e 1ccf 4bbd 1342 1f3d
00000270: cb10 a5ba eae2 45bd f6a3 f5bc 3dda 0a3c
00000280: 58e6 07bd e469 8b3e c557 ad3c a1a5 d7bd
00000290: 057d 88bd 400e f8bd a923 e9bb 4f7e f6bc
000002a0: 1ed1 c93c fc05 64bd e6df bbbc f6b9 8cbd
000002b0: 5e4b e9bd 7148 c8bb ce59 c1bc 93c2 e23c
000002c0: 9bc5 b63d 0573 a5bd f520 10bc ef1c b1bc
000002d0: 6f82 03bc 4d41 48bc c084 27bd 1a35 cdbd
000002e0: 247c 043a 4187 1fbe 63dc 5abd 5192 8ebd
000002f0: d193 7cbd a6a0 923d a365 0a3d 2504 113d
00000300: 457b e63d 3d55 713d 27e1 103c 1ea9 503d
00000310: 2421 e3bd 30fb 8dbd 33b6 f73c df32 5bbd
00000320: c6c8 a33c ced0 cb3c f0a9 40bb bb7a 79bd
00000330: 2d49 a9bd 8d7f c1bd 9b04 08bd c3ae 37bd
00000340: de96 223d 85a1 e7bc 0fe3 163c ad99 f7b9
00000350: 30d8 3a3d aabf 2dbd 1253 08bd f526 113b
00000360: 7658 8fbd 51e8 1b3e 5997 753d 6999 c73c
00000370: 6b9c 8bbd aec1 b8bd 76a9 03bd 7f50 0b3d
00000380: b66c 80bd 7a04 9b3d 0516 5ebd 526e 80bd
00000390: 6550 6fbc d344 24bd 9149 09bc 3bc4 1d3d
000003a0: 5c49 b2bd 1f90 143e 7a64 b73c 9c50 6e3c
000003b0: 1df9 113c 0178 6cbb eb8d 6e3d a6dd 17bd
000003c0: 7d33 8ebd 2504 ff3d a5f2 4f3d e238 793d
000003d0: e18f a2bc 4404 e0bc 11f2 183d 4284 b93d
000003e0: 61f6 aebd c5d9 003e cc97 943d 9995 cd3c
000003f0: aad4 123d eb73 a1bd 0c37 973d 12f3 22bd
-0.0428714 0.08918355 -0.01819231 0.032036886 0.08099281 0.07567039 -0.005369645 0.05013797
-0.06902492 0.040466066 -0.016849974 0.01637388 0.034679066 0.102744296 -0.03781031 0.04904479
-0.009530965 0.07144743 -0.030000923 0.08049824 -0.111044265 0.09876792 0.0796675 0.057063192
0.003735698 0.06890525 -0.026139857 -0.015647426 0.106582485 0.08664617 -0.03733039 0.018702904
-0.07603016 0.038036432 -0.0109753935 -0.008000182 0.051953245 0.10742706 -0.08450503 0.008954206
0.03360132 0.01643269 0.029254673 -0.07875483 -0.08849173 0.03343567 -0.08505918 -0.11239152
-0.09756903 0.029530492 -0.013211203 -0.07490489 -0.11871605 0.028653696 0.036041744 -0.16903055
0.029414395 0.01651321 -0.0010924601 -0.074620865 -0.025018046 -0.039952017 -0.07758437 -0.13613907
-0.079117894 -0.044832006 0.022761801 -0.08857573 0.121439144 0.063153945 -0.011635953 -0.1050135
-0.04737937 0.10801301 0.012275927 0.03665695 -0.016554108 -0.082415655 -0.016923582 0.053937275
-0.005896802 0.14894167 -0.05168256 -0.050135314 -0.0014418162 -0.092645824 -0.03484924 0.021996558
0.025279662 0.122398905 -0.018778285 -0.020534286 -0.043023065 -0.14752416 0.006123723 0.0061117588
0.08865113 -0.0677398 -0.070091516 -0.0098511465 0.051448856 -0.05375076 -0.0041455557 0.03443861
0.07711301 -0.18723717 -0.07783573 -0.045225423 -0.03778499 -0.059441574 -0.05552158 -0.13883592
-0.104078315 -0.23514782 -0.040995363 0.019379208 0.08972839 0.1273371 0.034233063 -0.06972748
-0.024967136 0.18228981 0.010537011 -0.073983975 -0.048054677 0.006066758 0.012702282 0.008716443
-0.08635208 0.12790434 -0.023958946 -0.1262204 0.11605921 -0.032405667 -0.024395727 -0.14246492
-0.074244514 -0.008525587 0.020089788 -0.06452717 0.3095044 -0.13009602 -0.028617235 -0.122718066
0.012930088 0.33022875 -0.017890835 0.13662253 -0.024422823 -0.11144619 -0.024539955 0.10598152
0.02686452 0.37206054 -0.04975806 0.038881373 -0.0012593506 -0.048312105 -0.02998541 0.008474884
-0.033178657 0.27229226 0.021160016 -0.10529638 -0.066644706 -0.12112093 -0.0071148467 -0.030089526
0.024635848 -0.05566977 -0.022933912 -0.06871407 -0.11391328 -0.0061121513 -0.023602393 0.02768067
0.08924409 -0.08078579 -0.00879692 -0.021620242 -0.008026703 -0.0122226 -0.040898085 -0.10019894
0.0005053899 -0.15578939 -0.053432833 -0.069615014 -0.061664406 0.071595475 0.033788335 0.035404343
0.112539805 0.05891918 0.008842743 0.050942533 -0.110903054 -0.06932676 0.030238247 -0.05351531
0.019993197 0.02487984 -0.0029398166 -0.06090806 -0.0826591 -0.094481565 -0.033207517 -0.0448444
0.03969466 -0.02827526 0.009209408 -0.0004722601 0.04561633 -0.042419113 -0.033282347 0.0022148464
-0.069992945 0.1522534 0.05995879 0.024365144 -0.06816944 -0.090213165 -0.032144032 0.034012314
-0.06270735 0.07569213 -0.05422022 -0.06271042 -0.01460657 -0.0401047 -0.008379356 0.038517218
-0.087053984 0.14508103 0.022386778 0.014545586 0.008909491 -0.003608227 0.058240812 -0.037076615
-0.06943414 0.124519624 0.050768513 0.060845263 -0.019843997 -0.027345784 0.037340228 0.09058429
-0.08543087 0.12583072 0.072555155 0.025095748 0.035847344 -0.07883438 0.07383546 -0.03978259

fc1.bias f4 [256]
00000000: 9b77 41be e271 3ebd 5cd1 f8bd 8993 8dbb
00000010: e67b 72bd 5c31 d3bd f2b7 043e a8f4 943d
00000020: 7000 0a3e 4c61 efbd c883 aebc 6c56 80bc
00000030: 66f6 ac3d 65dd 32be f95a 5abe e38a b33d
00000040: 460a efbc 96bc 513e 459f c5bd b90c 8ebd
00000050: 814b 223e b31a 603e b94f 183e c7ce 253e
00000060: 813c 163e 822c 33bd 4449 c53d f748 563e
00000070: f039 8c3d f18d 32be 9050 fdbc ad76 663c
00000080: 1dae 54bd be13 9d3c 9a6b 7ebd 1e89 d9bc
00000090: e1fc 5b3c f310 0c3e b75f 9ebd efd5 603e
000000a0: 5246 eebd cf6d 13be 4002 54be 4bd0 1d3e
000000b0: 8f4b ecbd 8d9f 7abd 2400 103e b7ae 89bd
000000c0: dd96 9fbc c1f5 9b3d e876 66bc c74d 533e
000000d0: 0216 593e 2dba e9bd 3bf0 fa3d 5f1d 2f3e
000000e0: 6e70 63bd b9f1 923e 4915 7dbe 9dd1 0b3d
000000f0: 848b 8c3e 30bc 38be f33b dabd ae40 c2bc
00000100: 524e e9b9 ecb6 27bd 93e9 023e 6f5c 2a3e
00000110: 616b 4bbe 07ea 5f3e a1bb 033e c794 85bd
00000120: 17fd 383d 9e88 05be 5ea1 163e b254 39be
00000130: d8bb 21be 198b c8bd fbf6 b63d 9af3 bbbd
00000140: 4edb 5a3e a576 703e 3dd8 353e 74e2 10be
00000150: 1a8e 95bc c837 b63d 41f7 453e 82b9 553e
00000160: 588e a93d 3e13 983d f014 2f3e fc80 843d
00000170: 641f e4bd ab5f 1dbe 7129 bc3c d116 fdbd
00000180: fb27 bd3c b502 25bd c2fd 0fbe 1c19 203d
00000190: c3e2 58bd 1136 bf3d 9cd7 483c bf90 5cbe
000001a0: 8922 b8bd d072 5f3e db11 303e 8264 a83e
000001b0: 6df2 bf3d 5336 a9bd 6164 9abd e2e7 94bd
000001c0: 2d6a 2d3d e829 1f3e 424b 743d 8a64 c2bd
000001d0: 96ed 37bd 877f 40be 9641 323e b736 b1bd
000001e0: 4eb1 8d3e 7f4f 063e fb89 00be 08f8 1dbe
000001f0: 1e87 563d dcf4 9fbd 6c09 d93d dc99 d8bd
00000200: 0467 0e3e fd48 36bd bfdc c2bd ec7a 4d3e
00000210: ac69 053e 44e6 2e3e d44b 34be a6b3 fb3d
00000220: 4c82 d53d adc7 28be b663 edbc fc95 8e3e
00000230: a454 103e 4724 923d beab 7c3d 7fde a33d
00000240: b3b1 843e 336f 863d dcd1 553e ddb6 f9bc
00000250: 7a16 a33d 48c4 0bbe c4ef 5bbd 6f50 2bbe
00000260: 5de3 bebd 3bcb f4bd 8b45 213c 127f 353e
00000270: 9007 66be c6dd fcbd 60b7 b03c 11e7 143e
00000280: ae51 383e 5dc7 e43d caf1 0e3d cd6c e23c
00000290: 1308 9cbb c6cf acbc cdf5 f23d 1813 253e
000002a0: 566c 6a3e e971 84bd 693f 8c3c 1b5f 6e3c
000002b0: 8f13 4f3e eddc 653e 2cb2 5e3e c3d2 26be
000002c0: dd9e a43d c067 c43d 7436 c13b f4c6 b53d
000002d0: 129a df3c 3b99 1ebd 009d 303e a802 13be
000002e0: 8b28 013e 2afc 88bd 1e59 7e3d 53ce 353e
000002f0: c893 7e3d a6ab 0cbe 3a67 263e cd56 06be
00000300: af2e f6bd 38da 5dbe f129 41be 0622 83bd
00000310: 5022 44be 115a 323e b19f 1abe 2778 a1bc
00000320: 4dff ca3d 0866 333c 9dcb 903e 7774 25bd
00000330: 04c7 d8bd bc95 563d 1eab 1a3d 8230 22be
00000340: 9079 cdbd 8754 8b3d 7681 283b f91b 1e3e
00000350: 01fc 283e 05af 0a3e 3cd1 163e 5589 ecbd
00000360: a558 803d bf87 8fbd 67b3 233e cc68 f1bd
00000370: 1a9d bd3c 0332 753e b9ac 12bd ed3d 373e
00000380: 8b81 2fbe cbe9 2a3e 9949 b0bc 95be 8bbe
00000390: cc46 41bd 0b4b 413e 7b93 7e3e 1c16 173d
000003a0: 7ff3 d7bd 01c5 843d c99f 4b3e fbbf 1e3c
000003b0: 5e11 5b3e 6692 493c 6c69 0ebe 5577 da3d
000003c0: 74be c03d 0361 41bd bf58 d2bd f775 a73d
000003d0: 503e de3d 29a1 d6bd 90b1 51bd 3079 733d
000003e0: ca6f 153e 297f 9f3a 5260 d8bd f86a c23d
000003f0: 927a 513d 1325 693e b8b4 103d 6f45 38be
-0.18893282 -0.046495326 -0.12149307 -0.004320566 -0.05920019 -0.10312149 0.12960795 0.07273227
0.1347673 -0.1168848 -0.021303073 -0.01566621 0.08445434 -0.17467268 -0.21323766 0.08766725
-0.029179703 0.20482096 -0.09649519 -0.069360204 0.15849115 0.21885185 0.14874162 0.1619216
0.14671518 -0.043743618 0.09633115 0.20926271 0.06846988 -0.17436959 -0.030922204 0.01406638
-0.05192386 0.019174453 -0.062114336 -0.02655464 0.01342699 0.1367834 -0.077331 0.21956609
-0.11634506 -0.14397357 -0.20703983 0.15411489 -0.11537849 -0.061187316 0.14062554 -0.06722777
-0.019481117 0.07615233 -0.014066435 0.20635138 0.21199802 -0.11412463 0.122528516 0.17101048
-0.055527143 0.28700045 -0.24715151 0.03413545 0.27450192 -0.18040538 -0.10655966 -0.023712482
-0.00044499576 -0.040945932 0.12784414 0.16636823 -0.1986518 0.21866618 0.12864543 -0.06522518
0.04516324 -0.13040397 0.14709994 -0.18098715 -0.15794313 -0.09792156 0.089338265 -0.09177323
0.2137272 0.2348276 0.1775827 -0.14148885 -0.018256236 0.08897358 0.19332601 0.20871547
0.08279103 0.07425545 0.17097831 0.06469914 -0.111388 -0.15368526 0.02296898 -0.123578675
0.023090353 -0.040285785 -0.14061645 0.039086446 -0.05295063 0.09336484 0.0122584365 -0.21539591
-0.08990962 0.21821141 0.17194311 0.3288918 0.09372411 -0.08262315 -0.07538677 -0.07270791
0.042337585 0.1554333 0.059642084 -0.094918326 -0.044904314 -0.18798648 0.17407832 -0.08653014
0.27674335 0.13116263 -0.12552635 -0.15426648 0.05237495 -0.07810375 0.105975 -0.10576221
0.13906485 -0.0445032 -0.0951476 0.20066422 0.13028592 0.17080027 -0.17607051 0.122901246
0.10425243 -0.1648242 -0.02897821 0.27848804 0.14094788 0.071358256 0.061687224 0.08001422
0.25916824 0.06564178 0.20880836 -0.030482704 0.079632714 -0.13649094 -0.053695455 -0.16729902
-0.0932071 -0.11952826 0.0098432405 0.17724255 -0.22463822 -0.123469874 0.021571815 0.1454127
0.17999908 0.11170838 0.034898557 0.02763977 -0.0047617047 -0.021095168 0.11863289 0.16120565
0.2289289 -0.06467039 0.01712008 0.014549042 0.20222305 0.22447558 0.21747655 -0.16291337
0.08038113 0.09590101 0.005896384 0.08875838 0.027295146 -0.03872035 0.17247391 -0.14356482
0.12613122 -0.066887215 0.062096708 0.17754488 0.062152654 -0.13737354 0.16250315 -0.1311905
-0.12020623 -0.21665275 -0.18863656 -0.06402974 -0.19153714 0.1741717 -0.1509998 -0.019710613
0.09911976 0.010949619 0.28280345 -0.040394273 -0.10584834 0.05238889 0.037760846 -0.15838817
-0.10032952 0.06803232 0.002571193 0.15440358 0.16502382 0.13543327 0.14728254 -0.115496315
0.062669076 -0.070083134 0.15986405 -0.117875665 0.0231462 0.23944859 -0.035809252 0.17894717
-0.1713926 0.16690747 -0.02151947 -0.2729384 -0.047186658 0.18876283 0.24860947 0.03688632
-0.1054449 0.06482888 0.19885172 0.009689326 0.21393344 0.0123029705 -0.13907403 0.10667292
0.09411326 -0.04721166 -0.10270833 0.08176797 0.10851729 -0.104799576 -0.051194727 0.059441745
0.14593425 0.0012168634 -0.10565247 0.09493059 0.051142283 0.22768049 0.035328597 -0.17995237

fc2.weight f4 [128, 256]
00000000: 1eab 363d 1b15 e23d 2326 7bbe d83e cb3d
00000010: 0c24 66bd 8aa4 24bc 2e22 d83c db8d 8fbd
00000020: 76f9 103d 12f2 c6ba de48 2f3d 870d bebb
00000030: 4f00 3d3d 62ce b83d e288 54bd 93b7 4b3d
00000040: 3984 b63d be96 793d fab2 c3bd 6e06 903c
00000050: e9fd d83d 051f d3bb 53a7 fc3c 1ea0 dcbc
00000060: fb96 583a a352 8cbd 3259 59bd 0326 9dbd
00000070: 0e7c 003d ffee 883c e513 a53d 7c3e 3dbd
00000080: 3ae0 2b3e d673 093e a252 84bc bb34 6c3c
00000090: fa3d a0bd 3fad 56bb b109 1bbe 3b33 42bd
000000a0: 63fd f8bd 3483 0f3e d98e d53d 7fb4 963d
000000b0: c825 743e bda9 69ba 1f0e 8abd 8501 86bd
000000c0: 4678 d9bd 1128 133e e678 ea3d 42c1 73bc
000000d0: 9190 ad3c 2cbc ee3c beea e43c 0cb5 a8bd
000000e0: e632 17bd 6e36 c0bc bb02 3bbb 0184 40bd
000000f0: 5b41 9cbd 79e1 c43d e27b 533d 1058 77bd
00000100: d893 e73b 669c a73d 9d67 103d caef 063e
00000110: 2e41 d73d f388 cbbc bcce 91bd 83bb 0cbd
00000120: 08ea f1bd cdf6 813d db84 5fbd 4641 87bd
00000130: 152b 253a f13b 11be 5f0a 123e a9cc a43d
00000140: 85b3 48bd 8bbe 253b 90f5 f6bc f71f c53d
00000150: 296a 343d ea7a 16bd 8c92 c83d 2e29 febd
00000160: 604b 033d f2f7 6d3c 6c04 b2bd 71d6 b93d
00000170: ca10 353d aa1b 99bd f242 c4bb 927b 9bbd
00000180: 1b90 e73d e50d 023e 9f1e 8dbd 1868 f53c
00000190: 0622 da3d e263 ad3d e7e4 16be effa 61bc
000001a0: 01b3 eebd c4d5 963d 1b1f 303d b416 a13d
000001b0: 9b9f 23bd 39ea babd ef58 b43d 1dec 133e
000001c0: 7579 9ebd befd 5bbc ca4e 003c 36f6 08bd
000001d0: ef70 ddbc 1e04 09bd 9f61 153d 4677 043d
000001e0: 73fc 3c3d 6ee3 a9bd bf8e 343c d76d 01be
000001f0: e0f4 babc 372b 1d3d fca1 7a3d 83c9 553d
00000200: 4998 033d 5441 963d 5a0e 8e3c e60b 083d
00000210: a20e c63d 387e 6f3c 10fe 043e c491 503d
00000220: d931 913d cf27 823d 4678 3e3d ef84 05bc
00000230: 21a7 003d e308 0a3d fb3c d63d 3dcf 0fbd
00000240: 530e 263c 17ec 463d dc8a e6bd 59b3 0ebe
00000250: 0509 ac3c 7a4e 413e 3dfd 193e c1f8 bdbd
00000260: 9578 153d 5e2c 923d 581b fb3c 2273 27bd
00000270: f1ea 953d 0479 143c f625 943d 41d1 0fbd
00000280: 60c6 b7bd 63e1 013e 861c 953c 3bcf 393d
00000290: 2e41 233a caf6 9abb 594a 81bc db1f 403c
000002a0: d3e7 8f3d 77f7 8c3a 23ed ac3d 8911 383d
000002b0: d3d4 7bbd cbb8 0ebc 15a9 b4bd cf8b 0bbe
000002c0: e82d 54bd c467 db3d de1d 833d bcbc b03c
000002d0: c39b 42bc 09a6 8ebb 3a7f 4dbb 79b6 f93d
000002e0: 3bd2 24be f82d aa3d 9528 f93c 636d d0bd
000002f0: e98d 683d 12dd b83d e6f9 793d b2af 36be
00000300: 19bb 9bbd f1bc 2a3d a5a7 403d ce26 1f3d
00000310: a881 23be 86f4 e63c 07c9 bebd 8eb3 af3d
00000320: 5d02 b0bc db9b 4cbd bc00 2abd 3755 9ebd
00000330: 93d9 59bd f893 6d3d 853c 8f3c 3bd6 cd3c
00000340: 68f9 f23c 09e3 3dbc 3a3e c03d c713 7cbb
00000350: 7c47 403b 22e6 a3bd f295 893b 6048 2abd
00000360: bf57 4fbd 1bf9 963d 20cd 4b3e a951 183d
00000370: 98e3 88bd 9a40 fc3c cd74 ebbc 1ce9 81bd
00000380: e40a 78bc b41e af3d 6112 5a3d 8c99 b7ba
00000390: b60a e5bd 85e6 64bd 3ed0 ccbc 2053 203d
000003a0: 36e5 ecbd 64df 623d cb16 16be c1d1 193e
000003b0: bbab 85bd 7adb d2bc a80c a9bd db5f 163d
000003c0: 5d3b 763d d359 bcbd fa3c 683c 973d 20bd
000003d0: 01ed 883d 398b ff3d 90b8 2fbe 075b 1fbc
000003e0: 7370 8b3c 761b e73c 6cde b7bc f49c 9dbc
000003f0: 0bf7 ae3d 14b2 d0bd 7863 6fbd 2daf 0bbd
0.044596784 0.11039182 -0.24526267 0.09924096 -0.05618672 -0.010048995 0.026383486 -0.07009479
0.035394154 -0.0015178344 0.0427941 -0.0057999524 0.046142872 0.090237394 -0.051888354 0.049735617
0.08911938 0.060934775 -0.095556214 0.01758119 0.105953045 -0.006442907 0.030841505 -0.026931819
0.0008262244 -0.06851699 -0.05306358 -0.07673266 0.031368308 0.016715525 0.08060435 -0.046202168
0.16784754 0.13423094 -0.016152684 0.014416869 -0.07824321 -0.0032757071 -0.15140416 -0.04741214
-0.12157705 0.14014894 0.10427637 0.07358646 0.23842537 -0.00089135376 -0.06740975 -0.065432586
-0.106186435 0.14370753 0.11448841 -0.014877619 0.021187099 0.029142462 0.027943965 -0.08237657
-0.036913775 -0.023463454 -0.0028535563 -0.04700089 -0.07629653 0.09613318 0.051631816 -0.060386717
0.007067185 0.081841275 0.035255063 0.1317741 0.10510479 -0.024845576 -0.071195096 -0.034358513
-0.11812216 0.06345902 -0.05457006 -0.06604247 0.000630067 -0.14183022 0.14261769 0.08046848
-0.04899933 0.0025290574 -0.03014639 0.096252374 0.044046555 -0.036738314 0.097935766 -0.12410198
0.032054305 0.014524447 -0.0869225 0.090741046 0.044205464 -0.074759796 -0.005989426 -0.075919285
0.11306783 0.12700613 -0.06890606 0.029956862 0.10651021 0.08466317 -0.14735757 -0.013792737
-0.11655236 0.07364991 0.042998414 0.078656584 -0.039947134 -0.09126706 0.08806025 0.14445539
-0.0773801 -0.013427196 0.007831285 -0.03343793 -0.02703139 -0.033451192 0.03647005 0.03234031
0.04613919 -0.08295332 0.011020361 -0.12639557 -0.022821844 0.03837129 0.061189637 0.05219413
0.032127652 0.07336679 0.017340828 0.033214472 0.0967076 0.014617495 0.12987542 0.050920263
0.07089586 0.06355249 0.04650142 -0.00814937 0.031409387 0.03369988 0.1046085 -0.035109747
0.010135251 0.048564997 -0.11256954 -0.13935603 0.021000395 0.18877593 0.15038009 -0.09275962
0.03649195 0.071373686 0.030652687 -0.040881284 0.07320202 0.0090620555 0.07233803 -0.03511167
-0.08973384 0.12683634 0.018202078 0.045363646 0.0006227669 -0.0047291266 -0.015782522 0.011726345
0.07026639 0.0010754903 0.08443668 0.044938598 -0.061482262 -0.00871105 -0.08821312 -0.13627551
-0.051801592 0.10713151 0.06402181 0.02157437 -0.011877957 -0.004353289 -0.003135635 0.12193007
-0.16095822 0.08309549 0.030414859 -0.10177114 0.05677596 0.09026541 0.061029337 -0.1784046
-0.076040454 0.041684095 0.04703488 0.038855366 -0.15967429 0.02819277 -0.09315687 0.08579169
-0.021485502 -0.049953323 -0.041504607 -0.07731097 -0.05318601 0.058002442 0.017484913 0.025126567
0.029659942 -0.011589774 0.09386869 -0.0038463937 0.0029339483 -0.08002879 0.004198783 -0.04157293
-0.05062079 0.07371732 0.19902468 0.037187252 -0.06684035 0.030792523 -0.028742218 -0.0634329
-0.015139315 0.08550778 0.053240184 -0.0014007553 -0.111836836 -0.055883903 -0.025001641 0.039141774
-0.11567156 0.055388823 -0.14657132 0.15021421 -0.065268956 -0.02573942 -0.08254367 0.03671251
0.060115207 -0.0919682 0.014174694 -0.039121237 0.0668583 0.124777265 -0.17160249 -0.009726292
0.017021393 0.028211337 -0.022444926 -0.01923988 0.085432135 -0.10190216 -0.05844447 -0.034102608

fc2.bias f4 [128]
00000000: 0dbb 0dbd 3ad5 62bd b3f0 823d 675a 35bd
00000010: a8b6 a0bd 63c5 c5bd 89c8 f53d eea9 59bd
00000020: ced8 a43c 5dc6 f1bb ae3b 9a3d 85bb bdbd
00000030: 28b4 e33d f066 e73c b58e 86bd 61b8 4c3c
00000040: a412 2f3d 97fe 773c 21b4 3cbd b231 38bd
00000050: 75b0 da3d b6f3 be3d 8707 69bd 53b5 f33d
00000060: aca2 37bd 14fe 143d c78e 023e db74 be3d
00000070: 6037 57bc 9782 103a a5ef 823d 72d5 023e
00000080: 42d3 f53c 533d cd3d fb98 30bd 6a58 84bb
00000090: 788a c13d a463 cb3d 56f6 533c a49c dcbc
000000a0: 3984 4b3d bde2 2b3c b3c6 8fbc f0cf 803d
000000b0: efb1 31bd 4bdb 023d 32bb 2bbd 1301 5ebd
000000c0: 0a0c f2bc 18c7 a1bd efdf 523c 7279 e73b
000000d0: b223 f43d d0f2 d23d e19e e93b 92b1 d53c
000000e0: f2c8 80bd f704 42bd 114b e9bd 14c6 973c
000000f0: f361 273d 2e6a 8ebb 5d13 b3ba 02d1 e63a
00000100: 0921 923c 97d1 033c 62f7 0b3d 6c7c a03d
00000110: 8e86 fabc 70e3 713d a73c e6bd 1a38 15bd
00000120: b428 053e b4ca 1d3d daaa 243d c3aa 9c3c
00000130: fd2c 063e e62c 6c3d a790 13bd 933f cf3c
00000140: 5f36 32bd 4e37 ec3c 393c fc3c 6582 7c3b
00000150: 4a9d 853d 6888 7d3d e131 d83d 71b2 303d
00000160: be5b 1f3d 5310 0c3c 8301 b83c 1327 a7bb
00000170: d4b2 943c fffa db3d 43d2 283d cb61 fc3c
00000180: a7d6 9d3c 98e8 a53c b8dc 923d ba6f cb3c
00000190: 95a0 d33c 8567 cdbd 1c16 d0bc a1fd 2d3d
000001a0: 7af2 1b3e 24be 7bbc c600 023e 088f 0b3d
000001b0: 62db b43c 7322 863d 6850 423c 8a30 b43c
000001c0: 0767 243d 0969 a43d f9cc 51bb b194 3a3d
000001d0: e8e0 943b d936 8d3c 0621 3a3d 69ba 2cbd
000001e0: f656 ab3d f9ab 143d 38c0 2fbd 3b0d 843d
000001f0: 53ee 073d df68 a63d eb87 473c a65a a73d
-0.034602214 -0.05537913 0.06393566 -0.044275668 -0.07847339 -0.09656789 0.1200114 -0.053140573
0.020122912 -0.007378383 0.07530914 -0.09264282 0.111183465 0.028247327 -0.06570188 0.012495131
0.042742386 0.015136383 -0.04607022 -0.04496927 0.10678188 0.09323828 -0.056891944 0.11899819
-0.04483287 0.03637512 0.12749778 0.09299632 -0.013135761 0.00055126235 0.06393365 0.12776735
0.030007962 0.10021462 -0.043114644 -0.00403886 0.09450239 0.09931114 0.012937149 -0.02693016
0.049686644 0.01049107 -0.017550802 0.06289661 -0.04338258 0.031947415 -0.04192657 -0.054200243
-0.029546756 -0.07899302 0.012870773 0.007064038 0.11920871 0.10300219 0.0071295355 0.026085649
-0.06288327 -0.047368016 -0.11391271 0.018527068 0.040864896 -0.0043461537 -0.0013662387 0.0017609897
0.017838018 0.008045576 0.03417147 0.078362316 -0.030581739 0.059054792 -0.11242037 -0.036430456
0.13003808 0.03852339 0.040202 0.019124394 0.13103099 0.057660006 -0.036026623 0.02529887
-0.043508884 0.028834965 0.030790435 0.003852987 0.06524141 0.061897665 0.10556389 0.043138925
0.03890585 0.008548814 0.022461658 -0.0051010936 0.018151678 0.10741233 0.041216146 0.03080835
0.019267393 0.02025251 0.07171005 0.024833549 0.025833407 -0.100295104 -0.025401168 0.042478207
0.15229216 -0.015365157 0.12695608 0.034071952 0.022077266 0.065495394 0.011859991 0.021995801
0.040137317 0.08027846 -0.0032013042 0.04555196 0.0045434125 0.017238067 0.04544165 -0.042169962
0.08366196 0.03629682 -0.042907923 0.06447836 0.033186268 0.08125471 0.012178401 0.08171587

fc3.weight f4 [2, 128]
00000000: 37fd a9bd 6f6c 423c 0486 a2bd 5b6d f73d
00000010: cd00 84bd e3b5 e5bc 4c8a 183b ce76 263e
00000020: 9d10 1d3d 47b6 0d3d f495 cfbc 966f e4bc
00000030: 867f 053a bb12 8abd 40ca 483d ebe3 10bd
00000040: 1940 cd3c f077 1d3d b1bd 36bd 4976 6abe
00000050: 2ed3 3abd 59f6 4d3d 0fc5 25bd 7cb2 24bd
00000060: 0643 6a3d 343c 1a3d 654c 7fbc e8b1 a53d
00000070: 6473 91bd 9fd5 b5bd 3eda f1bd 610e af3c
00000080: ae99 afbe ebab 88bd 7508 80bd 2359 063d
00000090: 2020 02bc 44fc 9f3c d750 433d 66ad ff3d
000000a0: 4e3d 473d 5609 9f3e 1afa acbc a872 4fbc
000000b0: 42b6 db3d b96a 61bd 2099 75bd ad94 04bd
000000c0: 8d4c 96bd 6252 4d3d e617 273d 0f2b a03d
000000d0: fc30 a7bb 00ce e2bb fc1b 813d 48ee 29bd
000000e0: 511d c53b dc9f 51bd bbe2 e73c 11d9 343d
000000f0: 4fc2 23be 63f1 78bd 661c 873d 8276 12bd
00000100: 360e 1e3e 7320 6fbd a805 833d 9faf 013d
00000110: 0738 64bd 9ed7 3ebe a7d0 0d3e 3a36 80bc
00000120: 9905 88ba 9720 253d 08d7 693c a202 813d
00000130: c895 42bc 8220 47bd 6329 14be 1da0 943d
00000140: 97d5 5dbd 06f4 e93c 0ea0 463d aa0e 1abd
00000150: 48c3 e4bc 8079 493d 3d4b e43c 23b6 333c
00000160: acca 3b3d bd8c 423d 87a9 67bd 196a 94bd
00000170: d3a4 453d 4c6a d2bc 389c 1bbd e36d 78bb
00000180: 9a92 e3bd 85c6 0fbc 66b7 f93c fb9d 173d
00000190: dc2b 5a3d 8c05 b3bd 55f8 64bd 8e7f 163d
000001a0: 4e66 05bd 672d 8abd 7e6e 15bd 771c a13d
000001b0: afc2 48bd 5495 e43c 67a6 26bd a064 3c3c
000001c0: 9cbd 943d 748c 95bd 0745 02bc cd0f c93b
000001d0: dff2 923c 5d82 ee3d 3260 f23d be02 a8bb
000001e0: 84de 7dbd fbc4 383d 5e81 6abd 2d5c 423d
000001f0: 0a9b 803d db93 d5bd c419 e53d fa25 243d
00000200: f90c 55bc 9436 36bd 8832 013e 5a8e e83c
00000210: 2977 5fbd aace 44bd 472c 803d a53a 8fbd
00000220: 694a 833d 11d3 c4bc 74e6 4a3e 57f9 a5bd
00000230: a99f 2b3e b957 b7bc 107b 0cbe e849 033e
00000240: cdbf ee3c e6e6 1bbd fc2b 6abd ca22 52be
00000250: 6e9a da3d b8f6 a73d 781a 86bc 95df e03d
00000260: c844 25bd 9c88 873c 68e1 d53d 81c9 1b3c
00000270: f829 0abd ea5d 6a3d 14d8 6e3e 992f fa3d
00000280: ea98 2cbd ec8c 293e 568e 5fbd dc09 02bc
00000290: 6603 0d3e bb12 4f3e 82fb 42bd 7041 573d
000002a0: 7369 193e ffa7 0dbd 3cb1 f6bd 73e5 a63d
000002b0: 6e52 d93d 442e b9bc b8f5 c6bc 1273 5abd
000002c0: 514b 453c 77d5 29bd 1cec 14be dfde 0ebd
000002d0: 527d ef3d 4a73 4a3e 13ca 77bc 43af 143e
000002e0: 26e1 a3bd a656 d5bc 6967 adbd a2e8 2bbd
000002f0: e9d3 59bd c268 7138 4ed0 d1bb 5cd1 0e3e
00000300: 966d 10bd fca6 a83d 0ef1 8dbc dde0 843d
00000310: d23f 91bc e6ff f33d e44e a5bd d1f3 c7bd
00000320: 605e 063e 0020 543e 1e9e 573d b78a f33b
00000330: e138 953d 03c1 173e 8e9d 8cbd fc8e c1bc
00000340: 12a5 63bc 23ce 303d c350 edbc e0d3 96bb
00000350: 3766 d03e 8c15 0ebb df48 3f3e 08ad cf3d
00000360: b25c 84bc 71cb 7a3d 17a6 dcbb 5338 51bc
00000370: 86a9 06bd ff62 ec3d ab29 fb3d bce1 f43d
00000380: 264b b2bd 0769 7b3b 4460 773c e0d4 583d
00000390: 6333 d03c 51cc 84be 7dc8 1fbd e9cb 33bc
000003a0: 281e a33d c22b 16bb c404 3c3e 89a1 c23d
000003b0: 8f4a 923d a108 a03d 6f6b 3fbd 4cd6 f93d
000003c0: 3798 96bd a5e5 373d c510 bbbd 57b3 263e
000003d0: 8ce0 263e 2e01 a63d 3d9b 193d 1c01 aebd
000003e0: d1f1 083e 863f fc3c 238e 56bb f275 eebc
000003f0: 8ee4 b8bc d89d 383e 7dc6 36be c00f db3b
-0.0830025 0.011866673 -0.07935718 0.12081405 -0.06445465 -0.028040832 0.002327579 0.16256258
0.03834592 0.03459766 -0.025340058 -0.02788524 0.000509255 -0.06741854 0.049021006 -0.03537361
0.025054978 0.03844446 -0.044614498 -0.22896685 -0.045611553 0.050283764 -0.040471133 -0.04020928
0.057192825 0.03765507 -0.015582179 0.080905735 -0.07102087 -0.088786356 -0.118092045 0.021369161
-0.34296936 -0.06673416 -0.06251613 0.03279985 -0.0079422295 0.01952947 0.047684517 0.12484245
0.04864245 0.3106181 -0.021115351 -0.0126616135 0.10728122 -0.05503342 -0.059960485 -0.03236835
-0.0733882 0.050127394 0.040794276 0.07820713 -0.005102275 -0.00692153 0.06304166 -0.04148701
0.0060154577 -0.051177844 0.028306356 0.044152323 -0.15992092 -0.06077708 0.065972134 -0.03575755
0.15435109 -0.058380555 0.06397563 0.031661626 -0.055717494 -0.18636939 0.13849126 -0.015650857
-0.0010377645 0.040314283 0.014272459 0.0629933 -0.011876531 -0.048614986 -0.14468913 0.07257102
-0.054158773 0.028558742 0.048492484 -0.03761164 -0.027925149 0.049188137 0.027867908 0.010968718
0.04584758 0.0474975 -0.05655816 -0.07246799 0.04825289 -0.025685452 -0.03799078 -0.0037907294
-0.111119464 -0.008775358 0.030482959 0.037015896 0.053264484 -0.08741292 -0.05590089 0.03674274
-0.03256827 -0.06746941 -0.036482327 0.07866757 -0.04901379 0.027903236 -0.040686037 0.0114986
0.072627276 -0.0730218 -0.007951028 0.006135917 0.017938076 0.116459586 0.11834754 -0.00512728
-0.061979786 0.04510973 -0.05725228 0.047451187 0.06279571 -0.10428592 0.11186555 0.04007528
-0.013003581 -0.044485644 0.12616932 0.028388191 -0.054557 -0.048048653 0.06258445 -0.069936074
0.06410677 -0.024026426 0.19814473 -0.081041984 0.16760124 -0.022380697 -0.1371882 0.12821162
0.029144192 -0.038062 -0.057170853 -0.20521083 0.106739864 0.08201355 -0.016370043 0.10980145
-0.040348798 0.016544633 0.104433835 0.0095084915 -0.03373143 0.05721847 0.23324615 0.1221611
-0.042138018 0.16557664 -0.0545791 -0.007936921 0.13770828 0.20221989 -0.047603138 0.05255264
0.14981632 -0.03458404 -0.120455235 0.08149233 0.10611425 -0.022605069 -0.02428709 -0.053332396
0.012041883 -0.04146334 -0.14543194 -0.034880515 0.11693825 0.19770542 -0.015123862 0.14519982
-0.08001928 -0.026042294 -0.084669895 -0.041969903 -0.05318061 5.755644e-05 -0.0064030057 0.13947052
-0.03526076 0.08234975 -0.017326858 0.06488202 -0.017730627 0.11914043 -0.08071688 -0.09763301
0.13121939 0.20715332 0.052641027 0.0074323076 0.072862394 0.14819722 -0.06865989 -0.02362775
-0.013894336 0.043165337 -0.028969174 -0.004602894 0.40702984 -0.0021680323 0.18680142 0.10140425
-0.016157482 0.061229173 -0.0067336666 -0.012769776 -0.032876514 0.115423195 0.12263807 0.11957118
-0.0870574 0.0038362162 0.015098635 0.05293739 0.025415128 -0.2593713 -0.03900956 -0.010973909
0.07964736 -0.0022914265 0.18361193 0.09503467 0.07143127 0.07814146 -0.046733316 0.12199077
-0.073532514 0.04489674 -0.09134058 0.1627935 0.16296595 0.08105694 0.037501562 -0.08496305
0.13373496 0.03079201 -0.0032738529 -0.029108975 -0.02256992 0.18028963 -0.17849155 0.006685227

fc3.bias f4 [2]
00000000: a13c a23c a55d 20bb
0.0198043 -0.002446988
